DDPG/actor_weights.pth (torch, 506311 bytes, 10 tensors)

fc1.weight f4 [400, 8]
0	0x3e88f918	0.26752543
1	0x3e7c818f	0.24658798
2	0xbdb49ba8	-0.088187516
3	0xbf9a8a7b	-1.2073511
4	0x3ea078dc	0.31342208
5	0xbda4cb3b	-0.08046576
6	0x3eb23b0c	0.34810674
7	0x3f0515c5	0.5198634
8	0x3d941b0c	0.07231721
9	0x3e213ba8	0.15745413
10	0xbe8dcb3d	-0.2769412
11	0xbf363a25	-0.7118247
12	0x3eadda52	0.33955628
13	0xbe016d2a	-0.12639299
14	0x3f0f0a76	0.5587534
15	0x3e663733	0.22481994
16	0xbf1fe6c2	-0.62461483
17	0xbd28340b	-0.041065257
18	0xbdd37b6f	-0.103262775
19	0xbf5532ed	-0.8328083
20	0x3e109493	0.14119177
21	0xbeaab6c5	-0.33342567
22	0xbe87a513	-0.2649313
23	0x3c8149fa	0.015782345
24	0x3e7e3074	0.24823171
25	0xbcb8b78b	-0.022548458
26	0x3eec67a4	0.46172822
27	0x3d5471c6	0.051866315
28	0xbf1f393b	-0.621967
29	0xbcbb56dc	-0.022868566
30	0xbcca8eab	-0.024726233
31	0xbcb0a0d0	-0.021561056
32	0x3f0f03ae	0.5586499
33	0x3e4b2c8a	0.19841209
34	0x3e214bf0	0.15751624
35	0xbfc7031e	-1.5547826
36	0x3dbff628	0.093731225
37	0x3ebc7d42	0.36814314
38	0xbd2a535c	-0.041583404
39	0x3c887ff7	0.01666258
40	0xbe74fe36	-0.23925099
41	0x3ebc87f2	0.36822468
42	0x3e74e3fd	0.23915096
43	0x40415cef	3.0212972
44	0xbe1bd82a	-0.15219179
45	0xbdbb55b6	-0.091472074
46	0xbd97b13f	-0.07406854
47	0xbf068870	-0.5255194
48	0x3d92435b	0.07141753
49	0x3ea4109e	0.32043928
50	0x3f3d5541	0.7395821
51	0x3feeea7b	1.8665308
52	0xbf58327e	-0.84452045
53	0x3cfd46c2	0.030917529
54	0xbcbba866	-0.022907447
55	0xbe4a72d9	-0.19770373
56	0x3f3ec578	0.74520063
57	0x3ef8561b	0.48503193
58	0xbe66e5dd	-0.22548623
59	0xbf17520a	-0.59109557
60	0x3eb4c228	0.3530438
61	0x3e3a4021	0.18188526
62	0x3e1a3a09	0.15061201
63	0xbc5e9bfd	-0.013586995
64	0xbe05c735	-0.13064273
65	0x3e02fd53	0.12791948
66	0x3e16087d	0.14651676
67	0xbf131fd9	-0.5747047
68	0xbea6e051	-0.32593015
69	0x3f171911	0.59022623
70	0x3d92ed53	0.07174172
71	0xbe927559	-0.28605154
72	0xbeac931b	-0.33705983
73	0x3e87365e	0.26408666
74	0x3e44332a	0.19160143
75	0xbf8b9bae	-1.0906885
76	0xbce50310	-0.027955562
77	0xbe517b06	-0.20457086
78	0x3efa49de	0.4888448
79	0xbd27fa18	-0.041009992
80	0x3dada7c7	0.084792666
81	0x3f1d34d7	0.6140875
82	0xbf365675	-0.7122567
83	0xbf8f89d3	-1.1213936
84	0x3f3ee79a	0.74572146
85	0x3f68382b	0.90710706
86	0x3f344116	0.70411813
87	0x3ebf92ad	0.37416592
88	0xbe824a45	-0.25447288
89	0xbe9835bf	-0.29728505
90	0x3dea8190	0.11450493
91	0xbf92d369	-1.1470767
92	0x3e2fb712	0.1715968
93	0x3ecd1f26	0.40062827
94	0x3d315747	0.043296125
95	0xbd1b34c9	-0.037892137
96	0x3f1b55dd	0.6067789
97	0xbec43a58	-0.38325763
98	0x3d981536	0.07425921
99	0xbefefb73	-0.49801216
100	0x3d8d8b54	0.0691134
101	0xbf3fc8cf	-0.74915785
102	0xbd9a1f97	-0.075255565
103	0x3e112d92	0.1417754
104	0x3eea087c	0.45709598
105	0x3eb91dca	0.3615554
106	0x3e29d537	0.16585241
107	0xbf8d821f	-1.1055335
108	0x3c0640e4	0.008194182
109	0x3ebbf37e	0.36709207
110	0xbd50618e	-0.050874285
111	0xbd7d661f	-0.06186497
112	0x3e7e7f9c	0.24853367
113	0x3bacd26e	0.0052741086
114	0xbddab80c	-0.106796354
115	0xbf65c38c	-0.89751506
116	0xbe11aa5b	-0.14225142
117	0xbf00e1d6	-0.503446
118	0x3c071729	0.008245268
119	0x3e123350	0.14277387
120	0x3e0de0ba	0.13855258
121	0x3e638561	0.22218849
122	0x3da9cf1f	0.08291458
123	0xbf39c4e0	-0.7256603
124	0x3e2f5855	0.1712354
125	0x3ae27d68	0.0017279806
126	0xbda2aeb8	-0.07943481
127	0x3d22b898	0.039726824
128	0xbe917af0	-0.28414106
129	0x3e93c990	0.28864717
130	0xbf0821c2	-0.5317651
131	0xbf533e62	-0.82517064
132	0xbf3e1890	-0.7425623
133	0xbf424ac2	-0.7589532
134	0x3d49c920	0.049264073
135	0x3e904c0a	0.28183013
136	0x3f17bbc5	0.5927089
137	0x3db7e506	0.0897923
138	0x3cbce0e9	0.023056464
139	0xbf855c31	-1.041876
140	0xbd6fada1	-0.058515195
141	0xbe88382d	-0.2660536
142	0x3e956595	0.29179063
143	0x3d9740e3	0.07385423
144	0x3f51a8e7	0.8189835
145	0x3da459d2	0.08024944
146	0xbf11735b	-0.56816643
147	0xbf1f6d1b	-0.62275857
148	0x3e9dbc4d	0.30807725
149	0xbf4b4e47	-0.79416317
150	0x3f419727	0.75621265
151	0x3e6ac571	0.2292688
152	0x3ee317ce	0.443541
153	0x3f3e6c73	0.7438423
154	0x3e3bd90b	0.18344514
155	0xbf92d41e	-1.1470983
156	0x3e0fc02c	0.14038152
157	0x3f2bff18	0.6718612
158	0xbe20d4b6	-0.15706143
159	0x3e8345ad	0.25639096
160	0x3dbe7205	0.09299091
161	0x3ea7c624	0.32768357
162	0x3f7756d1	0.96616846
163	0xbf4b0abd	-0.7931326
164	0x3f0de3fe	0.55426013
165	0xbf1d93d3	-0.61553687
166	0xbe5a3c6d	-0.21312113
167	0xbde3624a	-0.111027315
168	0xbe8f9ad4	-0.28047812
169	0x3f03c560	0.51473045
170	0xbf649a95	-0.89298373
171	0xbe9d68f1	-0.30744126
172	0x3eee8363	0.46584615
173	0x3f410e4f	0.7541246
174	0xbe330fff	-0.17486571
175	0x3e9058f5	0.2819287
176	0xbeb583a6	-0.35452002
177	0x3ef32db7	0.47495815
178	0xbea12dc6	-0.31480235
179	0x3eb24993	0.34821758
180	0x3f8235d8	1.0172682
181	0x3df34e1d	0.11880133
182	0xbdc30115	-0.09521691
183	0x3e133d34	0.14378816
184	0x3e43ee8f	0.19133972
185	0x3f28174b	0.6566054
186	0xbdc6f852	-0.09715332
187	0xbf80385a	-1.0017197
188	0xbdb12e6a	-0.08651431
189	0x3f2ce242	0.6753274
190	0x3f2e6110	0.68116856
191	0x3f3ef597	0.7459349
192	0x3f442465	0.76618034
193	0xbe409c31	-0.18809582
194	0x3d4ccb23	0.049998414
195	0xbefaa822	-0.489564
196	0xbdccecad	-0.1000608
197	0xbf0fa88f	-0.56116575
198	0xbea9a540	-0.33133888
199	0x3ec825ac	0.3909124
200	0xbe2a8813	-0.1665347
201	0x3ee531b3	0.4476448
202	0xbecc499c	-0.3989991
203	0xbfbc13d7	-1.4693555
204	0xbe1f63d2	-0.15565422
205	0x3d9e8fbb	0.07742258
206	0xbd654814	-0.055976942
207	0x3e0e63ec	0.13905305
208	0x3ec941ae	0.39307922
209	0xbef9c558	-0.48783374
210	0xbd49661e	-0.049169652
211	0xbf4789b4	-0.77944493
212	0x3ecf2278	0.40455985
213	0xbc6cf0f2	-0.014461743
214	0xbe7a90f9	-0.24469365
215	0x3f08ac36	0.53387773
216	0xbeb6dc48	-0.35714936
217	0x3ebdb747	0.37053892
218	0x3e322967	0.17398606
219	0xbf3bb699	-0.73325497
220	0x3e952612	0.29130608
221	0x3dbc2957	0.091875724
222	0xbc3c6280	-0.011498094
223	0xbdfb4383	-0.12268736
224	0xbecc7f6d	-0.39940968
225	0x3f0ce34e	0.5503434
226	0xbee826a1	-0.45341972
227	0xbf986c44	-1.190804
228	0x3d7f7dc5	0.062375803
229	0xbedded7f	-0.43345258
230	0x3e0984ec	0.13429612
231	0x3e8bc720	0.27300358
232	0x3e896a70	0.26839018
233	0x3e81cf87	0.25353643
234	0x3e8d4da7	0.27598307
235	0xbfb431f7	-1.4077748
236	0x3e71fec7	0.23632346
237	0x3eab20ba	0.33423406
238	0xbe68cecb	-0.22735135
239	0x3eb1941d	0.34683314
240	0xbcb12a0c	-0.021626495
241	0x3eaa4123	0.3325282
242	0x3e496b97	0.19669949
243	0xbf5b81f6	-0.8574518
244	0x3dd11a2d	0.10210071
245	0x3edba0f9	0.4289625
246	0x3eb1fdde	0.34763998
247	0xbe23a3a4	-0.15980393
248	0x3de0b2a5	0.10971574
249	0x3eaff7d3	0.34368762
250	0x3e90f74d	0.28313676
251	0xbf81708c	-1.0112472
252	0x3c1a2237	0.0094075715
253	0xbf164e12	-0.58712876
254	0x3e20044e	0.15626642
255	0x3dfabcbb	0.12243029

fc1.bias f4 [400]
0	0xbdcd1ce9	-0.1001528
1	0xbdaf336a	-0.08554728
2	0xbed41d2d	-0.4142851
3	0x3ef7628c	0.48317373
4	0xbe844b99	-0.25838926
5	0x3da40d1d	0.08010314
6	0x3ea81414	0.32827818
7	0xbe427a2a	-0.18991914
8	0x3e9af6e5	0.3026649
9	0x3ea08fe9	0.31359795
10	0x3e8e40c2	0.2778378
11	0x3d87100a	0.06594856
12	0x3ebf402f	0.37353656
13	0x3f227bfa	0.63470423
14	0x3e4b8462	0.19874719
15	0x3f0d86bd	0.5528372
16	0x3e3f56a0	0.18685389
17	0x3f2459d7	0.64199585
18	0x3e8b49dc	0.27204788
19	0x3f3774bf	0.71662515
20	0x3d17d826	0.03707137
21	0x3e87d43a	0.26529104
22	0xbc21a217	-0.009865305
23	0x3f3b71d2	0.7322055
24	0x3e773481	0.24141122
25	0x3eebf102	0.46082312
26	0x3e8b3adc	0.27193344
27	0xbe2b39f0	-0.1672132
28	0x3e89b77a	0.26897794
29	0xbe557b87	-0.20847903
30	0x3f39747a	0.72443354
31	0x3efea0cb	0.4973205
32	0xbe4f1021	-0.20220996
33	0x3e7674c3	0.24067979
34	0x3c4dc81c	0.012559917
35	0x3e377eba	0.17919436
36	0x3e653380	0.22382927
37	0x3e149689	0.1451055
38	0x3e5aaff4	0.21356183
39	0x3e55657b	0.20839493
40	0x3eda8ed3	0.4268709
41	0xbe3b6a48	-0.18302262
42	0x3eb7ac21	0.3587351
43	0xbd3c166d	-0.045919824
44	0x3f18f0e6	0.5974258
45	0x3f24a207	0.64309734
46	0x3f2b5943	0.6693308
47	0xbd15c685	-0.036566276
48	0x3f151564	0.58235765
49	0x3e9393f7	0.28823826
50	0x3e3adcd2	0.18248299
51	0x3ed28b56	0.4112193
52	0x3f4c56cd	0.7981995
53	0x3ec4e8f1	0.3845897
54	0x3f637763	0.88854045
55	0x3d8726d6	0.06599204
56	0xbcf0b65d	-0.029383833
57	0xbd9addbb	-0.07561823
58	0x3e8f0800	0.2793579
59	0x3f0effe6	0.5585922
60	0xbde4bdb9	-0.11168999
61	0x3cdb1b01	0.026746275
62	0xbe0bd24e	-0.13654444
63	0xbe111633	-0.14168625
64	0xbc8592da	-0.016305376
65	0x3f1ff6c2	0.624859
66	0x3d5caa1b	0.053873163
67	0xbe283675	-0.16427024
68	0x3e7fb7e4	0.24972492
69	0x3f31a351	0.69389826
70	0x3f07df9f	0.53075594
71	0x3f11300a	0.56713927
72	0x3f537a7a	0.8260876
73	0xbece2191	-0.40259984
74	0x3d341640	0.04396653
75	0x3d62f6da	0.055411197
76	0xbe161bc6	-0.14659032
77	0x3ee1c1c1	0.44093135
78	0x3ed61b56	0.4181773
79	0xbce4dd4e	-0.027937558
80	0xbe7a100a	-0.24420181
81	0x3f5cb017	0.8620619
82	0xbceb5679	-0.028727757
83	0x3f5fb752	0.873891
84	0x3ef98097	0.4873092
85	0x3dddd40d	0.10831461
86	0x3e70978c	0.2349531
87	0x3ecc4bbd	0.39901534
88	0xbd4374d9	-0.047718856
89	0xbea20c5f	-0.31650063
90	0x3f6d507c	0.92700934
91	0x3e4ec4eb	0.20192306
92	0x3f33362e	0.70004547
93	0x3ea26d4c	0.31724012
94	0x3f2171b2	0.6306411
95	0x3e94077a	0.28911954
96	0x3c380361	0.011231274
97	0x3d8eee7f	0.06979083
98	0x3f122ccf	0.5709962
99	0x3ea257a0	0.31707478
100	0x3dae8048	0.085205615
101	0x3f2eff15	0.68357974
102	0xbea1df22	-0.3161555
103	0x3e658f30	0.22417903
104	0x3ea2c235	0.31788793
105	0x3ef179b0	0.47163153
106	0x3eb5bc7d	0.35495368
107	0xbe66d355	-0.22541554
108	0x3d98e974	0.07466403
109	0x3da0675e	0.07832216
110	0xbeca97da	-0.3956898
111	0x3eed08d6	0.46295804
112	0x3f670feb	0.90258664
113	0x3f2e7ea2	0.68161976
114	0xbe19aaa0	-0.15006495
115	0xbe8f7474	-0.28018534
116	0x3ecd257b	0.40067658
117	0x3f1abf9b	0.60448617
118	0x3e9c4eb7	0.30528805
119	0x3e989897	0.29803917
120	0x3e9cf42f	0.30655047
121	0x3ec6305d	0.38708773
122	0x3f38384e	0.71960914
123	0x3e66b0c3	0.22528367
124	0x3eba96c8	0.36443162
125	0xbd602420	-0.05472195
126	0x3f1c7942	0.61122525
127	0x3e8dbcaf	0.27683017
128	0xbde0cd3a	-0.10976644
129	0x3eac10a0	0.33606434
130	0x3ef6e12a	0.48218662
131	0x3e858c44	0.26083577
132	0xbc968cb7	-0.018377645
133	0x3e76a58c	0.24086589
134	0x3e616a84	0.22013289
135	0x3d2661a2	0.040620454
136	0x3f880f95	1.0629755
137	0xbdafbec9	-0.08581311
138	0xbc8d0bf9	-0.017217623
139	0x3ec13a71	0.377399
140	0x3ec2ab3a	0.3802126
141	0x3f10480f	0.5635995
142	0x3e9c2b26	0.3050167
143	0x3f0a2adb	0.5397164
144	0x3e846a76	0.25862473
145	0x3f55d3a3	0.83526057
146	0x3d120318	0.03564748
147	0xbcbdc9c6	-0.023167502
148	0x3e009d78	0.1256007
149	0x3f2a17d6	0.6644262
150	0xbda9e27c	-0.082951516
151	0x3cbcfddb	0.023070266
152	0x3ecc8213	0.3994299
153	0x3efc1b07	0.4923937
154	0x3f11c6af	0.5694379
155	0x3ec3c956	0.38239545
156	0x3efaf2f8	0.49013495
157	0x3f62f4a6	0.88654554
158	0x3f22d36c	0.63603854
159	0x3c87662c	0.016528212
160	0x3ea84820	0.32867527
161	0x3f25ed76	0.6481546
162	0x3e6a37eb	0.22872894
163	0xbdefcc9b	-0.11708947
164	0x3eb82e28	0.35972714
165	0x3e670453	0.22560243
166	0x3bda617e	0.006664454
167	0x3f286ea4	0.65793824
168	0xbeb82421	-0.35965064
169	0x3e5cb235	0.21552356
170	0x3d68fb2b	0.056880157
171	0xbe2587e5	-0.16165121
172	0xbea43dcf	-0.32078406
173	0x3f650847	0.89465755
174	0x3d8c8740	0.068617344
175	0x3e525b4b	0.20542638
176	0xbd2afa9f	-0.041742917
177	0xbd98907d	-0.07449434
178	0x3c54208a	0.012947211
179	0x3f19d9f3	0.6009819
180	0x3f3b22ef	0.7310018
181	0x3f5019cf	0.8128938
182	0x3f5d4c41	0.8644448
183	0x3e44ee7c	0.192316
184	0xbe1c45f8	-0.15261066
185	0xbd0448e5	-0.03229608
186	0x3e2c171d	0.16805692
187	0x3e2cbb76	0.16868386
188	0x3f2bc31f	0.67094606
189	0xbe398498	-0.18116987
190	0x3ec5a437	0.38601848
191	0xbe2dcfe9	-0.16973843
192	0xbe3f2b95	-0.18668969
193	0x3eb512cb	0.353659
194	0x3e170c5d	0.1475081
195	0x3f1d487f	0.61438745
196	0x3df7d583	0.12101271
197	0x3ef092ec	0.46987092
198	0xb943de02	-0.00018679354
199	0x3f5fc8b5	0.8741563
200	0x3ef834c3	0.48477754
201	0x3edbe6f6	0.42949647
202	0xbec4eba3	-0.38461027
203	0x393f6286	0.00018251882
204	0x3e8dda77	0.27705738
205	0x3f6a297a	0.9146954
206	0x3e4f8519	0.20265616
207	0x3e105027	0.14093076
208	0x3d976ba8	0.07393581
209	0xbe201a0d	-0.15634938
210	0x3eb04f96	0.3443572
211	0x3e9dd443	0.30826005
212	0x3dafb46c	0.085793346
213	0x3e18554c	0.14876288
214	0x3e0f8d20	0.14018679
215	0x3e531010	0.20611596
216	0x3f20b4cc	0.62775874
217	0xbe1778ed	-0.14792223
218	0x3e24c88c	0.16092128
219	0x3f9fe08a	1.2490399
220	0x3ef41456	0.47671765
221	0x3eef19ae	0.4669928
222	0x3ed95ade	0.4245214
223	0x3f5a7a8c	0.8534324
224	0x3e04a8ac	0.12954968
225	0x3ed54f58	0.41662097
226	0x3ea16b54	0.31527197
227	0xbddb28b9	-0.107011266
228	0x3f12b29a	0.57303774
229	0xbe32b3ba	-0.17451373
230	0x3f949a1e	1.1609533
231	0x3e2d2c9e	0.16911551
232	0xbe1b2ef8	-0.15154636
233	0x3ef53db0	0.47898626
234	0xbc86413e	-0.016388532
235	0xbe935e09	-0.2878268
236	0xbddb898a	-0.10719593
237	0x3f08011a	0.5312668
238	0x3e7b95a2	0.24568799
239	0xbdfa530d	-0.12222872
240	0x3f1e8861	0.6192685
241	0x3eae4f4b	0.3404487
242	0xbe078635	-0.1323479
243	0x3eedca1c	0.4644326
244	0x3e9d0576	0.3066823
245	0x3eafd276	0.34340256
246	0x3f021788	0.50817156
247	0x3eedb9aa	0.46430713
248	0xbd43b9a5	-0.047784466
249	0x3d7d1feb	0.061798017
250	0x3f31f1aa	0.69509375
251	0x3e98ce61	0.29844955
252	0x3e03f479	0.12886228
253	0x3cee4449	0.029085295
254	0xbe0359dc	-0.12827247
255	0x3ea7f554	0.32804358

ln1.weight f4 [400]
0	0x3f5fff31	0.87498766
1	0x3f8daafa	1.1067803
2	0x3fe32b9a	1.7747681
3	0x3f9351e9	1.1509372
4	0x3fc6ca35	1.5530459
5	0x3fdecc3b	1.7406076
6	0x3f8bd22f	1.0923518
7	0x3fa17203	1.2612919
8	0x3f8977a4	1.0739636
9	0x3f4a3bbc	0.789974
10	0x3f0c77de	0.548704
11	0x3f8dff65	1.1093565
12	0x3fbb2965	1.4622008
13	0x3f12d7ac	0.5736034
14	0x3facf534	1.351233
15	0x3f63e8ac	0.89026904
16	0x3fa85855	1.3151957
17	0x3f31f894	0.69519925
18	0x3f9c7b38	1.2225103
19	0x3ea4c11f	0.3217859
20	0x3f692bf0	0.9108267
21	0x3f2e1279	0.6799694
22	0x3fa1f621	1.2653238
23	0x3ec358a6	0.3815357
24	0x3fc13d93	1.5096916
25	0x3eff0a44	0.4981252
26	0x3fa22c26	1.2669723
27	0x3fb88d8b	1.4418195
28	0x3eec9c3e	0.46212953
29	0x3fc36f54	1.526835
30	0x3ec54bfa	0.38534528
31	0x3f081b6e	0.53166854
32	0x3fa451ed	1.2837502
33	0x3f6e809e	0.93165004
34	0x3fa37115	1.2768885
35	0x40023ea3	2.035073
36	0x3f32fb89	0.6991506
37	0x3fa4e54f	1.288248
38	0x3f7958ba	0.9740101
39	0x3fc67c4d	1.5506684
40	0x3f1dfa08	0.6170964
41	0x3fd3174c	1.6491485
42	0x3eb6fd0f	0.35739943
43	0x3fa34d0a	1.2757885
44	0x3f2c266a	0.67246115
45	0x3f046931	0.5172301
46	0x3eacf221	0.3377848
47	0x3fe30de3	1.7738613
48	0x3ee8d30d	0.4547352
49	0x3f28edf3	0.6598808
50	0x3fcb5ed7	1.5888318
51	0x3f69ad7a	0.9128033
52	0x3ef2db70	0.47433043
53	0x3f1e0bd9	0.6173683
54	0x3e8dc3c8	0.27688432
55	0x3faaf5ed	1.33563
56	0x3f47fdfd	0.7812193
57	0x3fb1080b	1.383058
58	0x3f8d8dda	1.1058915
59	0x3f030574	0.51180196
60	0x3fad7290	1.3550587
61	0x3f60474c	0.8760879
62	0x3fdd6589	1.7296611
63	0x3f94060a	1.1564343
64	0x3f81b39b	1.0132936
65	0x3ed00db9	0.4063547
66	0x3fa408ce	1.2815187
67	0x3fabd40d	1.3424088
68	0x3f7b0462	0.9805356
69	0x3f718b08	0.9435277
70	0x3fed5e05	1.8544317
71	0x3f76ba66	0.9637817
72	0x3f01404c	0.50488734
73	0x402a6aa7	2.6627595
74	0x3f23f207	0.6404118
75	0x3fcbda17	1.5925931
76	0x3f891aa8	1.071126
77	0x3f37e24e	0.7182969
78	0x3f8080f9	1.0039359
79	0x3fa3d7e2	1.2800257
80	0x3f9dc260	1.2324944
81	0x3e7bc6a0	0.24587488
82	0x3fa7ca2d	1.3108574
83	0x3e908a7f	0.28230664
84	0x3ee7045b	0.4512051
85	0x3f5a61ee	0.8530568
86	0x3f5de77c	0.8668134
87	0x3efaf282	0.49013144
88	0x3f328c1b	0.69745034
89	0x3fd6e411	1.678835
90	0x3e5aece8	0.21379435
91	0x3fa14c6e	1.260145
92	0x3f12eaa6	0.57389295
93	0x3fb54c03	1.4163822
94	0x3f9a2fc6	1.2045829
95	0x3f19accd	0.600293
96	0x3f7c0e9a	0.9845978
97	0x3f80f8d8	1.0075941
98	0x3edad106	0.42737597
99	0x3f1cf11f	0.6130542
100	0x3f37c884	0.7179034
101	0x3f1b2d6c	0.60616183
102	0x3fb29575	1.3951861
103	0x3f7197d0	0.9437227
104	0x3eb95d8e	0.3620419
105	0x3f2fdaa0	0.6869297
106	0x3f152483	0.5825884
107	0x3fd94bc3	1.6976246
108	0x3fb10e9d	1.3832585
109	0x3f7da374	0.99077535
110	0x40059590	2.0872536
111	0x3f53e537	0.8277163
112	0x3eabe36d	0.3357195
113	0x3faaebfd	1.3353268
114	0x3f9a0412	1.2032492
115	0x3fe2191f	1.7663916
116	0x3f870b07	1.055024
117	0x3f3de703	0.7418062
118	0x3f93033e	1.1485364
119	0x3fc986d5	1.5744272
120	0x3f3ccb47	0.73747677
121	0x3f3a741f	0.72833437
122	0x3ea11879	0.31463984
123	0x3fb68f6d	1.426252
124	0x3f19d5bc	0.6009176
125	0x3fe229c1	1.7668992
126	0x3f228b35	0.63493663
127	0x3f8e850d	1.1134354
128	0x3ff5797b	1.9177698
129	0x3fbe92ae	1.4888513
130	0x3fafb488	1.3726969
131	0x3f07c824	0.53039765
132	0x3ffde35e	1.9835012
133	0x3f40d7bd	0.7532919
134	0x3f4fb3aa	0.8113352
135	0x3f5a8145	0.853535
136	0x3e71952f	0.23592065
137	0x3fca2a73	1.5794204
138	0x3fae1847	1.3601159
139	0x3f3b6c72	0.7321235
140	0x3f35098c	0.7071769
141	0x3fa0e994	1.2571282
142	0x3fb77d3d	1.4335095
143	0x3fa74307	1.306733
144	0x3f95f12f	1.1714228
145	0x3e84fd55	0.25974527
146	0x3f8578b1	1.0427457
147	0x3f8ac2b4	1.0840669
148	0x3f9ba68b	1.21602
149	0x3ec33ec1	0.38133815
150	0x3fdd426a	1.7285893
151	0x3f8ae69c	1.0851626
152	0x3f2efb4b	0.6835219
153	0x3fc43562	1.5328791
154	0x3f31b9a8	0.69423914
155	0x3f0fe415	0.562074
156	0x3fb3764b	1.4020475
157	0x3e8ca424	0.2746898
158	0x3f9f3af5	1.2439867
159	0x3f35ab1a	0.70964205
160	0x3f39af1c	0.7253282
161	0x3f128db0	0.5724745
162	0x3ed5e820	0.4177866
163	0x3fceb20e	1.6148088
164	0x3f68dc3b	0.90961045
165	0x3fb259ab	1.3933614
166	0x3f90bb9b	1.1307253
167	0x3ec2de65	0.380603
168	0x3fb7dc88	1.4364176
169	0x3f44c842	0.7686807
170	0x3ff56807	1.9172372
171	0x3fb4cae9	1.4124423
172	0x40084b4a	2.1295953
173	0x3e5743ee	0.21022007
174	0x3fc20e37	1.5160588
175	0x3ef12d71	0.47104982
176	0x3f92becb	1.1464475
177	0x3fb1bdb0	1.3886013
178	0x3f9d0367	1.2266663
179	0x3fcbdf48	1.5927515
180	0x3edd96c1	0.4327908
181	0x3e606e7f	0.21917151
182	0x3ea6d4e0	0.32584286
183	0x3f83c13f	1.0293349
184	0x3f9316e3	1.149136
185	0x3fe505a7	1.789235
186	0x3f65ca2f	0.8976163
187	0x3fdaa71b	1.7082247
188	0x3ef3893f	0.47565648
189	0x3fbe236e	1.4854562
190	0x3ef3a160	0.47584057
191	0x3fbb3511	1.462557
192	0x3fe5a59c	1.7941165
193	0x3ed69d86	0.41917056
194	0x3f44f04e	0.76929176
195	0x3ef31842	0.47479445
196	0x3f90fd9c	1.1327395
197	0x3ef1ca1c	0.4722451
198	0x3fb7ca21	1.435856
199	0x3e968185	0.2939569
200	0x3f01d0ac	0.50709033
201	0x3f8e901f	1.1137732
202	0x3fcdb3f6	1.6070545
203	0x3f8c0c50	1.0941257
204	0x3f1f1ea7	0.62156147
205	0x3e95a944	0.29230702
206	0x3fd081aa	1.628957
207	0x3f9aa347	1.2081078
208	0x3f8f8fdf	1.1215781
209	0x3fd3fdba	1.6561806
210	0x3f2147d1	0.6300021
211	0x3fa1724e	1.2613008
212	0x3fcdd424	1.6080365
213	0x3fb5a2d3	1.4190315
214	0x3f518f5a	0.8185936
215	0x3f6ea9e5	0.9322799
216	0x3f6542f8	0.8955531
217	0x3fd29035	1.6450258
218	0x3f966f7c	1.1752772
219	0x3e6a557d	0.22884174
220	0x3f2a1e7b	0.6645276
221	0x3f269cd5	0.65083057
222	0x3f1a55f1	0.60287386
223	0x3eca500d	0.395142
224	0x3f5b6fd8	0.85717535
225	0x3f5781f4	0.8418267
226	0x3f2d9422	0.6780416
227	0x3ff05980	1.8777313
228	0x3ec6acdf	0.38803765
229	0x3fc43c57	1.5330914
230	0x3e8d7941	0.27631572
231	0x3facb0f9	1.3491508
232	0x3fa13252	1.2593482
233	0x3ef96030	0.48706198
234	0x3fa26ae6	1.2688873
235	0x401072f9	2.2570174
236	0x3ff044f8	1.8771048
237	0x3f12b39f	0.5730533
238	0x3f70e662	0.94101536
239	0x3f8516d0	1.0397587
240	0x3f5ae0bd	0.85499173
241	0x3f6f917c	0.93581367
242	0x3fac66f4	1.3468919
243	0x3f105261	0.563757
244	0x3f5008c3	0.8126337
245	0x3f8569a7	1.0422868
246	0x3fc6da67	1.5535401
247	0x3f69b112	0.9128581
248	0x3f9209b0	1.1409206
249	0x3f884114	1.064486
250	0x3ea880cc	0.32910764
251	0x3facab34	1.3489747
252	0x3f2410a0	0.6408787
253	0x3f555d7a	0.8334576
254	0x3fad4b3f	1.3538588
255	0x3fd6d5cc	1.6783996

ln1.bias f4 [400]
0	0xbea21291	-0.3165479
1	0xbdb3c0d2	-0.08777012
2	0xbe0836dd	-0.13302179
3	0xbda42b70	-0.080160975
4	0xbe67c7a8	-0.22634757
5	0x3e1ea959	0.15494289
6	0xbea5cfef	-0.32385203
7	0xbe8f3222	-0.27967936
8	0xbe8cb1c7	-0.27479383
9	0xbed151b7	-0.40882656
10	0xbf1d8d24	-0.6154349
11	0xbe908ab4	-0.28230822
12	0xbe8a70e2	-0.27039248
13	0xbf2cf973	-0.6756813
14	0xbd06471f	-0.03278267
15	0xbef8555c	-0.48502624
16	0xbd4b0b9b	-0.049571615
17	0xbf167f57	-0.58788055
18	0xbe56da37	-0.2098168
19	0xbf3740f3	-0.7158348
20	0xbe8731b5	-0.2640511
21	0xbef4d9ff	-0.47822568
22	0xbd8f4118	-0.069948375
23	0xbf481557	-0.7815756
24	0xbe7fe006	-0.24987802
25	0xbf0215bb	-0.5081441
26	0xbdb70ce9	-0.08938009
27	0xbdc6579b	-0.09684678
28	0xbf126817	-0.5719008
29	0xbe35c043	-0.17749123
30	0xbf0350ea	-0.5129534
31	0xbefd6322	-0.49489695
32	0xbe345341	-0.17609884
33	0xbee63289	-0.4496043
34	0xbe4b84f7	-0.19874941
35	0x3de7e2fc	0.11322591
36	0xbef1413d	-0.47120085
37	0xbeb3abd4	-0.35092032
38	0xbdf307d7	-0.1186673
39	0xbe10c536	-0.1413773
40	0xbeb7b91c	-0.35883415
41	0xbe0fbb2f	-0.14036249
42	0xbee976b3	-0.45598373
43	0xbe1d039f	-0.15333413
44	0xbf038b6d	-0.5138462
45	0xbf0d948f	-0.5530481
46	0xbf30193d	-0.6878851
47	0xbc8818d1	-0.016613396
48	0xbf103491	-0.5633021
49	0xbf03094d	-0.51186067
50	0xbdb4f766	-0.0883625
51	0xbec6ef2c	-0.3885435
52	0xbf21c6a8	-0.6319375
53	0xbf1dbaf6	-0.61613405
54	0xbf2791af	-0.6545667
55	0x3d49dda0	0.049283624
56	0xbe90e5ca	-0.28300315
57	0xbe640d6d	-0.22270747
58	0xbeaa7c2c	-0.3329786
59	0xbf089ba3	-0.5336248
60	0x3dae3d38	0.0850777
61	0xbebd829d	-0.37013713
62	0xbde6bb98	-0.112662494
63	0xbdf13ed3	-0.11779561
64	0xbefc1564	-0.4923507
65	0xbf2a84eb	-0.66609067
66	0xbd87f295	-0.06638066
67	0xbe8f3b8a	-0.27975112
68	0xbebc51f5	-0.36781278
69	0xbec43844	-0.38324177
70	0xbe0fe7a6	-0.1405321
71	0xbea3b7c2	-0.31976134
72	0xbf4e5ea5	-0.80613166
73	0x3db25dd4	0.087093025
74	0xbf062d6c	-0.5241306
75	0xbb722f6c	-0.0036954535
76	0xbea52085	-0.32251373
77	0xbf0de7dd	-0.5543192
78	0xbec5cafa	-0.3863142
79	0xbe62ef3b	-0.22161572
80	0xbea0c7ee	-0.31402534
81	0xbf49ceb1	-0.7883101
82	0xbe7c5206	-0.24640664
83	0xbf3b4d29	-0.7316461
84	0xbf0a2188	-0.53957415
85	0xbed14f99	-0.4088104
86	0xbf122203	-0.5708315
87	0xbf204961	-0.6261197
88	0xbf183b0b	-0.5946509
89	0xbe0b9ba0	-0.13633585
90	0xbf498b64	-0.7872832
91	0xbe7602b2	-0.24024466
92	0xbf1a0250	-0.6015978
93	0xbe0e3907	-0.13888942
94	0xbe92a33e	-0.2864017
95	0xbef539e1	-0.4789572
96	0xbeb6ec10	-0.35726976
97	0xbee324a8	-0.44363904
98	0xbf512a23	-0.8170492
99	0xbf176a0c	-0.5914619
100	0xbeb5a5a4	-0.35477936
101	0xbf0448cd	-0.51673585
102	0xbb9fe096	-0.0048790677
103	0xbf0409ae	-0.5157727
104	0xbf1ec092	-0.6201259
105	0xbf17b8a7	-0.5926613
106	0xbef16e44	-0.47154438
107	0x3dcaf185	0.099093474
108	0xbe8539c2	-0.26020628
109	0xbeb3975b	-0.35076413
110	0xbd96ac5a	-0.07357092
111	0xbef16f0e	-0.4715504
112	0xbf4d463c	-0.80185294
113	0xbe993a47	-0.29927275
114	0xbe1770d3	-0.14789133
115	0x3c47b4d1	0.012189106
116	0xbe4d4499	-0.20045699
117	0xbf199dd0	-0.6000643
118	0xbea99f6f	-0.3312945
119	0x3cf50900	0.029911518
120	0xbeacb6a1	-0.33733085
121	0xbeb262e2	-0.34841067
122	0xbf465831	-0.7747832
123	0xbe7a924c	-0.2446987
124	0xbf33d50b	-0.7024695
125	0xbe596fb8	-0.21234024
126	0xbf1a87ce	-0.6036347
127	0xbe8de521	-0.27713874
128	0xbd2a4317	-0.041567888
129	0xbcf7af69	-0.03023501
130	0xbe63cb05	-0.22245415
131	0xbf0b0214	-0.54300046
132	0x3dcd76e4	0.10032442
133	0xbf034658	-0.5127921
134	0xbee1c725	-0.44097248
135	0xbe9ecf68	-0.31017613
136	0xbf402140	-0.75050735
137	0xbe7cf403	-0.24702458
138	0xbe0821ee	-0.13294193
139	0xbf0029ec	-0.5006397
140	0xbee4f160	-0.44715405
141	0x3c5923b1	0.013253138
142	0xbe05c6c7	-0.13064109
143	0xbe4f51c4	-0.20246035
144	0xbd79f25f	-0.06102216
145	0xbf3b1a4d	-0.73087007
146	0xbea21894	-0.31659377
147	0xbe9fb485	-0.31192413
148	0xbea0956e	-0.31364006
149	0xbf19f243	-0.6013529
150	0xbbc0d7a5	-0.005885082
151	0xbe8fa34f	-0.28054282
152	0xbf229052	-0.63501465
153	0xbd8b756d	-0.068095066
154	0xbf0701d0	-0.5273714
155	0xbf07e123	-0.53077906
156	0x3d543d23	0.051816117
157	0xbf2eb468	-0.6824403
158	0xbe2e6c29	-0.17033447
159	0xbef57bce	-0.47946018
160	0xbee5bb12	-0.44869286
161	0xbf08ebaa	-0.53484595
162	0xbf1ea852	-0.61975586
163	0xbdf0b6a6	-0.117535874
164	0xbee73b0a	-0.4516223
165	0xbe835b2c	-0.25655496
166	0xbe550d26	-0.20805797
167	0xbf30b33d	-0.69023496
168	0xbe9f65b7	-0.3113229
169	0xbe92f3ff	-0.2870178
170	0x3bab65af	0.0052306275
171	0x3df87843	0.12132313
172	0xbd7e70de	-0.062119357
173	0xbf465300	-0.774704
174	0xbd179c6e	-0.037014417
175	0xbf117dcb	-0.5683257
176	0xbc86e440	-0.01646626
177	0xbf06b71f	-0.5262317
178	0x3e5851d1	0.2112496
179	0xbc3ce8c9	-0.01153011
180	0xbef2ce95	-0.47423235
181	0xbf4dd09a	-0.80396426
182	0xbf51fd40	-0.82027054
183	0xbe898dbf	-0.26865956
184	0xbe21c6ca	-0.15798488
185	0x3a7eb666	0.00097165105
186	0xbe9ab46a	-0.3021577
187	0xbda6906a	-0.081330135
188	0xbf2fd179	-0.68679005
189	0xbdbdd7b1	-0.092696555
190	0xbf151416	-0.58233774
191	0xbea8764e	-0.3290276
192	0xbd05b411	-0.032642428
193	0xbf16c97b	-0.58901185
194	0xbecbd9cc	-0.39814603
195	0xbf19b742	-0.60045254
196	0xbe9c3049	-0.3050559
197	0xbf3ba6a8	-0.7330117
198	0xbe0cb855	-0.13742192
199	0xbf3cfdbf	-0.73824686
200	0xbf202d87	-0.6256947
201	0xbd981a7e	-0.07426928
202	0xbe888aca	-0.26668388
203	0xbe3889f4	-0.18021375
204	0xbf0378c5	-0.51356155
205	0xbf445e2a	-0.7670618
206	0xbddc0242	-0.10742618
207	0xbe1bbba7	-0.15208302
208	0xbebd9680	-0.37028885
209	0xbe60aa17	-0.21939884
210	0xbecc780e	-0.39935344
211	0xbe637159	-0.22211207
212	0xbe5540f1	-0.20825554
213	0xbe028d05	-0.12749107
214	0xbed0b818	-0.40765452
215	0xbe71c0c0	-0.23608685
216	0xbed1630f	-0.40895888
217	0xbe1736a4	-0.14766937
218	0xbe62aa3c	-0.22135252
219	0xbf4fc4fe	-0.8115996
220	0xbf181e50	-0.59421253
221	0xbf25a2c2	-0.64701474
222	0xbf25133c	-0.64482474
223	0xbf53133e	-0.82451236
224	0xbed2fabb	-0.41206917
225	0xbec7894c	-0.38971937
226	0xbeb951e0	-0.36195278
227	0xbde1350b	-0.10996445
228	0xbf22adf2	-0.6354667
229	0xbe56493c	-0.20926374
230	0xbf4af868	-0.7928529
231	0xbe3e867d	-0.1860599
232	0xbdbe6dac	-0.09298262
233	0xbefc99ac	-0.49335992
234	0xbeab0621	-0.33403113
235	0x3ddfc53b	0.109262906
236	0xbe46ba6d	-0.19407053
237	0xbf21865a	-0.6309563
238	0xbeba0547	-0.3633215
239	0xbe863026	-0.2620861
240	0xbf15c3e7	-0.5850205
241	0xbe96f493	-0.2948347
242	0xbe5c1971	-0.2149408
243	0xbf040d65	-0.5158294
244	0xbf019398	-0.50615835
245	0xbeddec5b	-0.43344387
246	0xbdfc19ef	-0.12309634
247	0xbefdbd23	-0.49558362
248	0xbecb82b4	-0.39748156
249	0xbeba9ef1	-0.36449388
250	0xbf46a29a	-0.7759186
251	0xbd88c01f	-0.06677269
252	0xbee5c86d	-0.44879475
253	0xbeedafd7	-0.46423218
254	0xbc4b49bd	-0.012407717
255	0x3e2779da	0.16355076

fc2.weight f4 [300, 400]
0	0x3e73e052	0.2381604
1	0x3ea2e0fd	0.31812277
2	0x3f606005	0.87646514
3	0x3ef9dc84	0.48801053
4	0xbdab7f82	-0.083739296
5	0xbe39f678	-0.18160427
6	0x3f9d90c2	1.2309802
7	0x3ed3df0a	0.41381103
8	0x3f5e4971	0.8683081
9	0xbdb0715a	-0.0861537
10	0x3f0304c5	0.5117915
11	0xbe24f07d	-0.16107364
12	0xbedf9aaf	-0.43672702
13	0x3e861b4c	0.261927
14	0xbebd4469	-0.36966255
15	0xbca69afd	-0.020337576
16	0x3e84c0d7	0.25928375
17	0x3d1c2f03	0.03813077
18	0x3f323942	0.6961862
19	0xbd0dca7b	-0.03461693
20	0x3f4e87ca	0.8067595
21	0x3f077f40	0.52928543
22	0xbe6a3bc4	-0.22874361
23	0x3814690f	3.5383793e-05
24	0xbf47c220	-0.78030586
25	0x3f6aad4f	0.916707
26	0xbe56585e	-0.20932147
27	0xbe9d5bce	-0.30734104
28	0x3ef27ebe	0.47362322
29	0x3eafc765	0.34331813
30	0x3f5be8c1	0.8590203
31	0x3f3897d3	0.72106665
32	0xbf09fe60	-0.5390377
33	0x3f091baa	0.53557837
34	0x3f0ca10c	0.5493324
35	0xbf154014	-0.583009
36	0x3f79aca2	0.9752904
37	0x3ef31643	0.47477922
38	0x3fa8e7a7	1.3195695
39	0xbd9069a0	-0.07051396
40	0x3f98f4c8	1.1949701
41	0x3e04b3a5	0.12959154
42	0x3f728cf5	0.94746333
43	0x3f126f2f	0.572009
44	0x3f41d5d5	0.75716907
45	0x3f31cf9d	0.6945742
46	0x3f052134	0.5200379
47	0x3f96a2ce	1.1768434
48	0x3f48ed45	0.78487045
49	0x3f168e30	0.5881071
50	0xbedc8054	-0.43066657
51	0x3e9f7ece	0.31151432
52	0x3f2fe6cb	0.6871154
53	0x3ef62e34	0.48082125
54	0x3eb1783d	0.34662047
55	0xbf64fa79	-0.8944469
56	0x3e9baf82	0.3040734
57	0xbe920805	-0.28521743
58	0x3ef60e7a	0.4805792
59	0x3f942c83	1.1576084
60	0xbf0a3029	-0.53979737
61	0x3ecd4b13	0.4009634
62	0x3f8df517	1.109042
63	0x3a931d5b	0.0011223959
64	0x3e37c841	0.17947485
65	0x3e698684	0.2280522
66	0x3f0d7bbd	0.55266935
67	0x3e371013	0.17877226
68	0x3f69ca0b	0.9132392
69	0x3ee67065	0.45007625
70	0x3fb34e61	1.4008294
71	0xbdf47701	-0.11936761
72	0x3e35c186	0.17749605
73	0x4008e31f	2.1388624
74	0x3c1bcfde	0.009510009
75	0x3f9f30f0	1.243681
76	0x3d54e9de	0.051980846
77	0x3cd7ad3f	0.026327727
78	0x3e34378b	0.17599313
79	0x3f257559	0.64632183
80	0x3efe6e69	0.4969361
81	0x3ea971b5	0.33094564
82	0xbedd34a7	-0.43204233
83	0x3eb8f6e1	0.36125854
84	0x3ddf81e9	0.1091345
85	0xbcb11d43	-0.021620398
86	0xbdfb4005	-0.1226807
87	0x3f2b833b	0.66997117
88	0x3e9cd674	0.30632365
89	0xbe86318f	-0.26209685
90	0x3ed33093	0.41247997
91	0x3d0ae7a6	0.033912323
92	0x3ee3fbe9	0.4452813
93	0x3f6a2cd5	0.9147466
94	0x3e8727a6	0.26397437
95	0x3f8c0f65	1.0942198
96	0x3ebeff95	0.3730437
97	0x3dd752ca	0.10513838
98	0x3f4c60cb	0.79835194
99	0x3f3f5525	0.74739295
100	0x3f3778e0	0.71668816
101	0x3f0ddc7b	0.5541455
102	0xbeae0193	-0.33985576
103	0x3f7f9e21	0.9985066
104	0x3f301518	0.68782187
105	0x3eae6599	0.34061888
106	0x3f6fafeb	0.93627805
107	0xbf4d6036	-0.8022493
108	0xbd5f4bdb	-0.0545157
109	0x3e82f73e	0.25579256
110	0x3f087cfe	0.5331572
111	0x3fc86ef5	1.5658861
112	0x3eccf3c8	0.4002974
113	0x3e035dec	0.12828797
114	0x3ea61650	0.32438898
115	0x3f25240e	0.6450814
116	0xbe48beda	-0.19604054
117	0x3e0d709d	0.1381249
118	0xbc255707	-0.01009155
119	0x3f1cb9e4	0.61221147
120	0x3f44deaa	0.7690226
121	0x3f1495e6	0.58041227
122	0x3f7b138e	0.98076713
123	0xbdf643c1	-0.12024642
124	0x3db80d32	0.08986892
125	0x3fa4d503	1.2877506
126	0x3f28a41b	0.65875405
127	0xbe969896	-0.2941329
128	0x3faca0ab	1.3486532
129	0xbec9ad8b	-0.39390215
130	0x3fb82845	1.4387289
131	0x3f25a20d	0.64700395
132	0xbf12f642	-0.5740701
133	0x3dbfa71f	0.09358048
134	0x3e93c6b9	0.2886255
135	0xbe628b1f	-0.22123383
136	0x3f0082d4	0.5019963
137	0x3e8cc275	0.2749211
138	0x3e6f22a4	0.23353058
139	0x3f308b42	0.6896249
140	0x3ee8b2fb	0.4544905
141	0x3ef20d45	0.4727575
142	0xbf182f9b	-0.5944764
143	0xbf0586f4	-0.5215905
144	0x3e364e32	0.17803267
145	0x3ef168b1	0.47150186
146	0x3e03767f	0.12838171
147	0xbe253e21	-0.16136982
148	0xbe8ce72e	-0.27520126
149	0x3f037bb6	0.5136064
150	0x3f930aed	1.1487709
151	0xbea255bb	-0.31706032
152	0x3f3f8c11	0.748231
153	0xbe550963	-0.20804362
154	0x3f6fb128	0.93629694
155	0x3f788486	0.97077215
156	0x3efc7d91	0.4931455
157	0x3f280bde	0.6564311
158	0xbed0f1d4	-0.408095
159	0x3cb203f4	0.0217304
160	0x3d570bbd	0.05250143
161	0x3f6d0ec5	0.9260066
162	0x3f87884c	1.058847
163	0xbf1b9108	-0.60768175
164	0xbecc52af	-0.39906833
165	0xbec740a1	-0.38916495
166	0xbe7332ab	-0.23749797
167	0x3f1b1525	0.6057914
168	0xbf34b75e	-0.70592296
169	0x3f9817ea	1.1882298
170	0x3f292e66	0.66086423
171	0xbe0aa9b1	-0.13541295
172	0x3fdba3f4	1.715941
173	0x3e893adf	0.26802728
174	0xbeec51e3	-0.46156225
175	0x3f252006	0.6450199
176	0x3edafb01	0.42769626
177	0xbf374032	-0.7158233
178	0x3e43e92b	0.19131915
179	0x3e43ea4d	0.19132347
180	0x3f8e90c1	1.1137925
181	0x3e9eecdc	0.31040084
182	0x3f019266	0.5061401
183	0xbf26d2b4	-0.6516526
184	0x3f314b86	0.69255865
185	0x3f14d914	0.58143735
186	0x3f99ccee	1.2015665
187	0x3eaca211	0.33717397
188	0x3f3a86b1	0.7286177
189	0xbd0a8491	-0.03381783
190	0x3ecc4a9d	0.39900675
191	0xbeb3fdb3	-0.35154495
192	0x3f0e43ad	0.55572015
193	0x3f5d60c7	0.86475796
194	0x3e4cb114	0.19989425
195	0x3ed31d5d	0.4123334
196	0xbe1c6c58	-0.15275705
197	0x3ef0fb9a	0.47066957
198	0x3ed28cea	0.41123134
199	0x3e825b56	0.2546031
200	0x3e123880	0.14279366
201	0x3eef6dec	0.4676355
202	0xbe112c3c	-0.1417703
203	0x3dc6b953	0.097033165
204	0x3e05ef42	0.13079551
205	0x3f3baef3	0.73313826
206	0x3faa55e6	1.3307464
207	0x3f40331a	0.75077975
208	0x3c1ab148	0.009441681
209	0x3f72f8a3	0.9491064
210	0x3e7b7e29	0.24559845
211	0xbeb6d1ef	-0.35707042
212	0x3f59d70b	0.85093755
213	0xbd9a04ab	-0.075204216
214	0x3f0fc5e1	0.56161314
215	0x3ef86cb8	0.48520446
216	0x3f88bf75	1.0683428
217	0x3f04a0d4	0.51807904
218	0x3f478253	0.77933234
219	0x3e961652	0.29313904
220	0x3f0cadcb	0.5495269
221	0x3f806770	1.0031567
222	0x3fa71bc4	1.3055348
223	0x3ed6056b	0.4180101
224	0x3f5a10d7	0.85181946
225	0x3f12cdb2	0.57345116
226	0x3e9cefdd	0.3065175
227	0x3f623ca7	0.883738
228	0x3eef275b	0.46709713
229	0x3f64a66f	0.8931646
230	0x3f3a19fa	0.7269589
231	0xbd92a132	-0.07159652
232	0x3dc53656	0.096295044
233	0x3f5ec339	0.87016636
234	0xbe6ad187	-0.22931491
235	0x3fda2d48	1.7045069
236	0x3eac8d83	0.33701715
237	0x3fa66212	1.2998679
238	0xbf4920a5	-0.78565437
239	0xbee44b11	-0.4458852
240	0x3c520471	0.012818442
241	0x3f459ad1	0.77189356
242	0x3f9e5d8b	1.2372297
243	0x3f390ad9	0.7228218
244	0x3dc4b053	0.09603944
245	0x3f0fbb1a	0.5614487
246	0xbdddb3e8	-0.1082533
247	0x3f5c2ed4	0.86008954
248	0x3f82db0c	1.0223098
249	0x3dc256ab	0.09489187
250	0x3e84d070	0.25940275
251	0x3e99982d	0.29998913
252	0x3e81a8bf	0.25324056
253	0xbd14d229	-0.036333237
254	0xbe17cdf5	-0.1482466
255	0x3f454509	0.77058464

fc2.bias f4 [300]
0	0x3f600d75	0.87520534
1	0x3f118a95	0.56852084
2	0x3caf91d8	0.021431848
3	0x3f2fa236	0.6860689
4	0x3f05112a	0.51979315
5	0x3cf39175	0.029732445
6	0x3eba314b	0.36365733
7	0x3f3a809f	0.7285251
8	0x3e9a7a70	0.30171537
9	0x3ea83610	0.32853746
10	0x3f13d8c8	0.57752657
11	0x3f116719	0.5679794
12	0x3eb52927	0.3538296
13	0x3f2d8c79	0.6779247
14	0x3f2a8287	0.6660542
15	0x3f15f525	0.58577186
16	0x3f27b150	0.6550493
17	0x3e1fdff4	0.15612775
18	0x3e917f2b	0.28417334
19	0x3f2e6c4f	0.68134016
20	0x3e380164	0.1796928
21	0x3f463d1b	0.7743699
22	0x3ec73f63	0.38915548
23	0x3eca3918	0.39496684
24	0x3e8fdf43	0.28100023
25	0x3ea2ed2a	0.31821567
26	0x3f187bea	0.5956408
27	0x3f035bee	0.5131215
28	0x3eb09b76	0.34493607
29	0x3eed1f47	0.46312925
30	0x3f5013ec	0.812804
31	0x3f20ed50	0.6286211
32	0x3f30f1cb	0.69118947
33	0x3f0ad60c	0.5423286
34	0x3f39efe1	0.7263165
35	0x3f5472ff	0.8298797
36	0x3f079001	0.5295411
37	0x3f0d116d	0.55104715
38	0x3f1afd26	0.60542524
39	0x3f3ad4b0	0.72980785
40	0x3f11fd58	0.57027197
41	0x3f0d7113	0.5525066
42	0x3ee86596	0.45390004
43	0x3ea4ea6f	0.3221011
44	0x3eeb80d6	0.45996732
45	0x3eff1452	0.4982019
46	0x3f0b637b	0.5444867
47	0xbe15756a	-0.14595571
48	0x3f0feca4	0.5622046
49	0x3f142553	0.5786945
50	0x3ede4565	0.4341232
51	0x3ef1c72a	0.47222263
52	0x3ebe18f5	0.37128416
53	0x3f382ca3	0.7194311
54	0x3f12a9bd	0.5729025
55	0x3f0acc7e	0.5421828
56	0x3f25f56e	0.6482762
57	0x3e81ecd9	0.25376013
58	0x3f8d4789	1.1037456
59	0x3f3b3c76	0.7313913
60	0x3dd23eaf	0.10265862
61	0x3eaeab9a	0.34115297
62	0x3f19b9c6	0.6004909
63	0x3e87b12d	0.26502362
64	0x3db63352	0.08896507
65	0x3f46917b	0.77565736
66	0x3f48d94d	0.78456575
67	0x3f104f09	0.563706
68	0x3f0c15a3	0.54720515
69	0x3e9b1a3c	0.30293453
70	0x3ebe6ee8	0.3719399
71	0x3f18f2c4	0.5974543
72	0x3ec4080c	0.3828739
73	0x3eac5bf8	0.33663917
74	0x3ec2ef39	0.38073137
75	0x3f124ca8	0.5714822
76	0x3f38d51e	0.7220019
77	0x3f462bde	0.77410686
78	0x3f27e1f3	0.65579146
79	0x3f502d90	0.8131952
80	0x3f2fa228	0.68606806
81	0x3ed48b6c	0.4151262
82	0x3e5bd19b	0.21466677
83	0x3ea53997	0.322705
84	0x3e8efab5	0.2792565
85	0x3ecbcdf5	0.3980557
86	0x3f15d885	0.5853351
87	0x3ea6a253	0.3254572
88	0x3ef4e4af	0.47830722
89	0x3ecf8681	0.40532306
90	0x3e950d4b	0.29111704
91	0x3f14f6df	0.58189195
92	0x3ed9efff	0.42565915
93	0x3dee0d8e	0.11623679
94	0x3e77388a	0.24142662
95	0x3f00d83c	0.5032995
96	0x3ee5eeb2	0.44908673
97	0x3f1cce95	0.6125272
98	0x3eab2da8	0.3343327
99	0x3d4362c7	0.047701623
100	0x3fa220b6	1.2666233
101	0x3e234eb9	0.15947999
102	0x3f35c84a	0.7100874
103	0x3eb20a98	0.34773707
104	0x3e4e61a7	0.20154439
105	0x3f0d02a1	0.55082136
106	0x3f288ea6	0.65842664
107	0x3f095723	0.53648585
108	0x3f43c0a2	0.7646581
109	0x3edf8bd1	0.4366136
110	0x3f15e4f9	0.5855251
111	0x3f68c142	0.9091989
112	0x3f349645	0.70541793
113	0x3f0c799c	0.5487306
114	0x3ebb57ec	0.36590517
115	0x3f1fc884	0.6241534
116	0x3e604132	0.2189987
117	0x3f011e9f	0.5043735
118	0x3ec99c97	0.3937728
119	0x3f200652	0.62509644
120	0x3ef05661	0.46940902
121	0x3f3d383a	0.7391392
122	0x3f78a311	0.9712382
123	0x3ded5a5f	0.115895025
124	0x3f3f787b	0.74793214
125	0x3e7c306c	0.24627846
126	0x3f3bae08	0.73312426
127	0x3f3c5a57	0.7357535
128	0x3e88ab94	0.26693404
129	0x3ed13e10	0.40867662
130	0x3f2a7397	0.66582626
131	0x3f1edc28	0.6205468
132	0x3e9d18ce	0.30682987
133	0x3e0b3a26	0.135964
134	0x3da8c1b4	0.08240071
135	0x3eb202a1	0.3476763
136	0x3f1e5926	0.6185478
137	0x3f4c2a6c	0.7975223
138	0x3f381d05	0.7191928
139	0x3f01be2b	0.506808
140	0x3f110159	0.5664268
141	0x3f6503bf	0.8945884
142	0x3f112ac7	0.567059
143	0x3e7a5bbf	0.24449061
144	0x3f24e257	0.6440787
145	0x3f17ff48	0.59373903
146	0x3ed0b211	0.40760854
147	0x3f301997	0.68789047
148	0x3f00d9fb	0.5033261
149	0x3e91859b	0.28422245
150	0x3e9d0d74	0.30674326
151	0x3f20bac9	0.6278501
152	0x3f2a2734	0.6646607
153	0x3f18e0a5	0.5971778
154	0x3f1019bb	0.5628926
155	0x3eb269c8	0.3484633
156	0x3f3bc5a0	0.73348427
157	0x3f26a3c1	0.6509362
158	0x3d9c3361	0.07626987
159	0x3f1691e7	0.5881638
160	0x3ee03a52	0.43794495
161	0x3f09597d	0.53652173
162	0x3ebdf52c	0.37101114
163	0x3ea5fade	0.3241796
164	0x3e9adfe1	0.3024893
165	0x3f38bc19	0.72162014
166	0x3e45bcb9	0.19310273
167	0x3ed3fe05	0.4140474
168	0x3ee505f3	0.447311
169	0x3eb8910e	0.36048168
170	0x3f05f0b7	0.52320427
171	0x3f296acb	0.6617858
172	0x3ef9ff43	0.48827562
173	0x3ed7f37b	0.42177948
174	0x3ecbd118	0.39807963
175	0x3f164656	0.58701074
176	0x3f2dcca7	0.678904
177	0x3f301629	0.68783814
178	0x3ed6d7c9	0.41961506
179	0x3f12487f	0.5714187
180	0x3ebc65ff	0.36796567
181	0x3f38d64a	0.7220198
182	0x3f04d369	0.51885086
183	0x3eb9e3e8	0.3630669
184	0x3e82a31c	0.25515068
185	0x3e64b6c0	0.22335339
186	0x3ed714bf	0.42008016
187	0x3ebc9914	0.3683554
188	0x3f2e3f78	0.68065596
189	0x3e82f0c9	0.2557433
190	0x3f257a8e	0.6464013
191	0x3ef3e723	0.4763728
192	0x3ecfaa11	0.40559438
193	0x3ead799c	0.33881843
194	0x3f29f3f0	0.66387844
195	0x3f324886	0.6964191
196	0x3efd6ae5	0.49495617
197	0x3edcf881	0.43158343
198	0x3f633c71	0.887641
199	0x3ecf01c1	0.40431026
200	0x3f39b4dd	0.725416
201	0x3f28757b	0.6580426
202	0x3eaebcbb	0.34128365
203	0x3f0d341c	0.5515764
204	0x3f3f903d	0.74829465
205	0x3f08402b	0.5322291
206	0x3ef3278b	0.47491106
207	0x3ed1bc30	0.40963888
208	0x3ea9c1c8	0.33155656
209	0x3f0c54d3	0.5481693
210	0x3fab6ee4	1.3393216
211	0x3e8f0243	0.27931413
212	0x3f066d57	0.5251059
213	0x3e0e5050	0.13897824
214	0x3e02802f	0.1274421
215	0x3eee3819	0.46527174
216	0x3f239cd6	0.6391119
217	0x3f19f888	0.60144854
218	0x3f2cb370	0.674613
219	0x3f3ea9d4	0.7447789
220	0x3da6f76b	0.0815266
221	0x3eb491c0	0.35267448
222	0x3ece6425	0.4031078
223	0x3e9c6185	0.30543151
224	0x3e97f236	0.2967698
225	0x3f2d9f81	0.6782151
226	0x3f372b77	0.715507
227	0x3f2e648b	0.68122166
228	0x3f2ac1fe	0.6670226
229	0x3ef708fe	0.48249048
230	0x3f0a8c26	0.541201
231	0x3f0f53dc	0.55987334
232	0x3eef4896	0.46735066
233	0x3e376378	0.17909038
234	0x3f2e7af0	0.6815634
235	0x3f04d2e7	0.5188431
236	0x3f05e912	0.5230876
237	0x3f20c70c	0.6280372
238	0x3ef8b2c0	0.48573875
239	0x3ecb791c	0.39740837
240	0x3f188db8	0.59591246
241	0x3f4a2222	0.7895833
242	0x3f27d4c4	0.6555903
243	0x3f2a53d2	0.6653415
244	0x3f0504d0	0.5196047
245	0x3f18aea4	0.5964148
246	0x3f840b44	1.0315938
247	0x3f0bf026	0.5466331
248	0x3f04c4cb	0.5186278
249	0x3f5cc51d	0.8623827
250	0x3f71683f	0.9429969
251	0x3f0914bb	0.5354726
252	0x3ed21d59	0.41038015
253	0x3ef156c5	0.47136512
254	0x3e9be26d	0.30446187
255	0x3dee013c	0.11621329

ln2.weight f4 [300]
0	0x3e5416de	0.20711848
1	0x3ed9d889	0.42548016
2	0x3fcd23e7	1.6026582
3	0x3ecb654f	0.3972573
4	0x3f060fac	0.52367663
5	0x3fce5e4b	1.6122526
6	0x3f3ee143	0.7456247
7	0x3ee510be	0.44739336
8	0x3f435952	0.76308167
9	0x3f29b683	0.66294116
10	0x3f1ff467	0.62482303
11	0x3eceafc9	0.40368488
12	0x3f62aac7	0.88541836
13	0x3e655bce	0.22398302
14	0x3eedcb1a	0.46444017
15	0x3f80a4f6	1.0050342
16	0x3f111a08	0.56680346
17	0x3fd1fa26	1.6404464
18	0x3fa749fc	1.3069453
19	0x3ed14ab0	0.40877295
20	0x3fb3c777	1.4045247
21	0x3eb2d773	0.3493
22	0x3f34037a	0.70317805
23	0x3f6b4aee	0.9191121
24	0x3f4f92f3	0.810836
25	0x3f1fd21b	0.6242997
26	0x3ee3b2e7	0.4447243
27	0x3f32d9a3	0.6986334
28	0x3fbd17bc	1.4772868
29	0x3f48eba0	0.78484535
30	0x3ea8f906	0.3300249
31	0x3eeae025	0.45874134
32	0x3ea0d7f3	0.31414756
33	0x3f629e8f	0.8852319
34	0x3ef8a4aa	0.4856313
35	0x3ebb5353	0.3658701
36	0x3f151836	0.5824007
37	0x3ef68390	0.4814725
38	0x3efc613f	0.49292943
39	0x3ea1adc1	0.31577876
40	0x3f331055	0.69946796
41	0x3fa3a26c	1.2783942
42	0x3f5a5227	0.85281605
43	0x3f86152e	1.0475214
44	0x3f90c425	1.1309859
45	0x3f4d084f	0.800908
46	0x3f35f1c2	0.7107202
47	0x3f5c2b87	0.8600392
48	0x3f1d6601	0.6148377
49	0x3ec912fb	0.39272293
50	0x3f7819f5	0.9691461
51	0x3f1c2955	0.6100057
52	0x3f98bc04	1.1932378
53	0x3f78abbb	0.9713704
54	0x3ecf4b0e	0.4048695
55	0x3f7a5d9d	0.9779909
56	0x3f000e91	0.50022227
57	0x3f8ef8cf	1.116968
58	0x3e7a6b9e	0.24455115
59	0x3ebaa688	0.36455178
60	0x3fb25075	1.3930804
61	0x3f4b659a	0.79451907
62	0x3f106475	0.56403285
63	0x3f7485c2	0.955166
64	0x3faecdff	1.3656615
65	0x3f0989f3	0.5372612
66	0x3ea7e8a6	0.32794684
67	0x3f384d44	0.719929
68	0x3f18e531	0.5972472
69	0x3f965f3a	1.1747811
70	0x3ef98bdb	0.48739514
71	0x3efc12a7	0.4923298
72	0x3fa3d7ac	1.2800193
73	0x3fecfbf9	1.8514396
74	0x3f73b7d0	0.9520235
75	0x3f4d5794	0.8021176
76	0x3ed09752	0.40740448
77	0x3e85faf4	0.26168025
78	0x3f112a9e	0.56705654
79	0x3ebe1ecb	0.37132868
80	0x3ee0840b	0.4385074
81	0x3f84b5e9	1.0368015
82	0x3f4306aa	0.76182044
83	0x3fa2a68d	1.2707077
84	0x3fc127e4	1.5090299
85	0x3f57db9d	0.8431948
86	0x3f110cc7	0.5666012
87	0x3f539bd0	0.82659626
88	0x3f0d256e	0.5513524
89	0x3f79336c	0.9734409
90	0x3f6009ee	0.8751515
91	0x3ef8d532	0.48600155
92	0x3f6d82b0	0.9277754
93	0x3f9ad17f	1.2095183
94	0x3fb6fb7f	1.42955
95	0x3f34988c	0.7054527
96	0x3f098cc8	0.5373044
97	0x3f2f5e5d	0.6850336
98	0x3f3dd316	0.74150217
99	0x3fa08192	1.2539542
100	0x3e09abd7	0.13444458
101	0x40048d71	2.071133
102	0x3f000bbd	0.5001791
103	0x3f8726f1	1.0558759
104	0x3fcf9693	1.6217827
105	0x3f31ccda	0.69453204
106	0x3f2f6f56	0.6852926
107	0x3f51803c	0.81836295
108	0x3eebf914	0.4608847
109	0x3f5b28e6	0.8560928
110	0x3f1e88cd	0.6192749
111	0x3e56ffdc	0.2099604
112	0x3eb28f89	0.34875134
113	0x3f460274	0.77347493
114	0x3f6cdbf9	0.9252315
115	0x3ed0f307	0.40810415
116	0x3f4a80b8	0.7910266
117	0x3f02688b	0.5094077
118	0x3f8e38ab	1.1111044
119	0x3ef5c865	0.4800445
120	0x3f4616d2	0.7737857
121	0x3efa1970	0.48847532
122	0x3e5e3f7c	0.21703905
123	0x3faefdc7	1.3671197
124	0x3f11997e	0.56874835
125	0x3f77a203	0.96731585
126	0x3e8cbe8f	0.27489135
127	0x3ec60e1c	0.3868264
128	0x3f6e0a30	0.92984295
129	0x3fa33baf	1.2752589
130	0x3f91b8b2	1.138449
131	0x3ec2a884	0.38019192
132	0x3f99699d	1.1985356
133	0x3fabeaa2	1.3430979
134	0x3f46d132	0.77662957
135	0x3ff5f795	1.9216181
136	0x3f97effb	1.1870111
137	0x3eb624d0	0.3557496
138	0x3ea3bf8d	0.3198208
139	0x3f1a865f	0.60361284
140	0x3f69d696	0.9134306
141	0x3ea85f1a	0.32885057
142	0x3f10c117	0.5654463
143	0x3fa8594b	1.315225
144	0x3f034b0f	0.51286405
145	0x3ef9eaaa	0.48811847
146	0x3f46b46c	0.7761905
147	0x3f16b011	0.58862406
148	0x3ec80831	0.3906875
149	0x3f86c5d5	1.0529124
150	0x3f876482	1.0577548
151	0x3f2e8923	0.68178004
152	0x3f455e9d	0.77097493
153	0x3ef16d26	0.47153586
154	0x3f31289c	0.6920259
155	0x3f5f29cd	0.8717316
156	0x3ee4fb0b	0.4472278
157	0x3f15c0a1	0.58497053
158	0x3fdf4578	1.7443075
159	0x3f35f31b	0.71074075
160	0x3f4ff148	0.8122754
161	0x3f3b042d	0.73053247
162	0x3f5d0792	0.86339676
163	0x3f0d4d6a	0.5519625
164	0x3f92472f	1.1427974
165	0x3eb05a82	0.34444052
166	0x3efd214e	0.49439472
167	0x3f4e2846	0.805302
168	0x3f17558d	0.59114915
169	0x3f874a0e	1.0569475
170	0x3f094b98	0.5363097
171	0x3f0ce99f	0.5504398
172	0x3f203502	0.62580884
173	0x3f3b0b4f	0.7306413
174	0x3f3c371b	0.73521584
175	0x3f005cf0	0.5014181
176	0x3eea57e3	0.45770177
177	0x3f5992f1	0.8498984
178	0x3f3738fd	0.7157133
179	0x3f1e00dc	0.6172006
180	0x3fb5747f	1.4176177
181	0x3e8d5a4f	0.27607962
182	0x3f3922dd	0.7231882
183	0x3f92c23d	1.1465527
184	0x3f6a7886	0.91590154
185	0x3f73d8af	0.9525251
186	0x3f2cec95	0.67548496
187	0x3f947900	1.1599426
188	0x3ebcccad	0.36874905
189	0x3f8a8452	1.0821631
190	0x3f15a3ce	0.5845307
191	0x3ef785cd	0.4834427
192	0x3f281360	0.65654564
193	0x3f64d751	0.89391047
194	0x3f1cd50e	0.61262596
195	0x3f313221	0.69217116
196	0x3f175d7e	0.5912703
197	0x3f3141d9	0.692411
198	0x3ea2a741	0.3176823
199	0x3f6c79e7	0.9237351
200	0x3ea7e223	0.32789716
201	0x3f2e1b91	0.68010813
202	0x3f85820f	1.0430316
203	0x3ecc1c10	0.3986516
204	0x3f042887	0.5162434
205	0x3f13d9ea	0.57754385
206	0x3f27b71a	0.65513766
207	0x3f869f9e	1.0517461
208	0x3f8ecbea	1.115598
209	0x3f912d57	1.1341962
210	0x3e3deee8	0.18548167
211	0x3f942af0	1.1575603
212	0x3f410f13	0.75413626
213	0x3f10ca98	0.56559134
214	0x3f955b9e	1.1668584
215	0x3f69935d	0.91240484
216	0x3f1ee148	0.620625
217	0x3f18a37b	0.5962445
218	0x3eb1cf9b	0.34728703
219	0x3ebcb77f	0.36858746
220	0x3f1c68d5	0.6109746
221	0x3f93097a	1.1487267
222	0x3f252053	0.6450245
223	0x3f1bd3c9	0.60870034
224	0x3f79ae5c	0.97531676
225	0x3f2b0d20	0.668169
226	0x3ef11b49	0.4709113
227	0x3eabeca7	0.3357899
228	0x3f101cad	0.56293756
229	0x3fb0b11a	1.3804047
230	0x3f04ef51	0.5192767
231	0x3f35fe89	0.71091515
232	0x3f6904cc	0.91022944
233	0x3f832690	1.0246143
234	0x3ed52daa	0.416364
235	0x3f0cef71	0.5505286
236	0x3f200e35	0.6252168
237	0x3ec8760e	0.3915257
238	0x3f48dcbc	0.78461814
239	0x3ee62c6c	0.44955766
240	0x3f25d142	0.6477243
241	0x3ea0871e	0.31353086
242	0x3ec5b835	0.386171
243	0x3eeb1796	0.45916432
244	0x3f8af590	1.085619
245	0x3f127afe	0.5721892
246	0x3e378435	0.17921527
247	0x3f5a09cb	0.8517119
248	0x3f646f29	0.89232117
249	0x3e99aa80	0.30012894
250	0x3e5d3c66	0.21605071
251	0x3ef5e9b2	0.48029858
252	0x3f921e24	1.1415448
253	0x3f23cc3d	0.6398352
254	0x3fafeee9	1.3744785
255	0x3fad94b5	1.3561007
