DDPG/actor_weights.pth (torch, 2783 bytes, 4 tensors)

fc1.weight f4 [30, 8]
000000 8c 8e e0 3f 6f c7 2b c0 e0 64 81 3f 59 cf bc bf
       1.7543502 -2.6840475 1.010891 -1.4750777
000010 91 5b a2 bf 29 48 57 c0 07 57 73 40 e5 91 9c bf
       -1.2684194 -3.3637793 3.8021867 -1.2232023
000020 65 d4 e3 3f ea 11 4f 3f 68 4a c2 3e 0f 30 9e bf
       1.7799193 0.8088671 0.37947392 -1.2358416
000030 7a f0 5e bf a7 c9 80 c0 73 23 2a 40 01 f7 64 3f
       -0.8708569 -4.024616 2.6584136 0.894394
000040 71 3c 37 c0 91 29 4d c0 5c ba 0d bf 1c 7d 66 be
       -2.863064 -3.205662 -0.55362487 -0.22508663
000050 5f 2b c1 3f 05 9a 0a 40 7b 43 c5 3e ad 3f 43 bf
       1.5091361 2.1656506 0.38528046 -0.76269037
000060 e3 c7 90 bf ea 36 4e 3f db 66 52 bf cd ee 44 3e
       -1.1311 0.8055254 -0.82188195 0.1923172
000070 12 41 8d bf d3 2b 2a 40 ba 1b 29 40 2a 80 1f bf
       -1.1035483 2.6589248 2.6423173 -0.6230494
000080 89 db 2f c0 e9 1c b4 3f db 01 ca bf fc c7 11 3f
       -2.7477744 1.4071323 -1.5781816 0.56945777
000090 50 56 0e 3f a9 05 ec 3f 10 d2 95 bf f3 7e e7 bf
       0.5560045 1.8439227 -1.1704731 -1.8085617
0000a0 34 04 be 3f d9 ee c4 3f 8f 6e d4 3e 99 df d9 bf
       1.4845033 1.538539 0.414906 -1.7021362
0000b0 05 8c 8f 3e 90 83 76 3f 10 76 e2 3e c4 06 4f bf
       0.28036514 0.962945 0.442307 -0.808697
0000c0 f3 96 b6 3f a0 db e6 be 3f 5e 17 be 30 cb e6 3f
       1.4264816 -0.45089436 -0.14782046 1.8030758
0000d0 69 b6 b5 3f 14 19 f5 bf f8 5d 0e bc 67 d8 d0 3f
       1.4196292 -1.9148278 -0.008689396 1.6316041
0000e0 0f e9 09 bf 6e c3 15 c0 3e d6 8e be 26 91 e4 bc
       -0.53871244 -2.340053 -0.2789783 -0.027901243
0000f0 15 8e 36 3e 52 eb e3 be 67 53 9b 3e 32 d1 34 bf
       0.17827637 -0.44515473 0.30337068 -0.70631707
000100 d5 8a be 3f 77 c4 aa 3f cc 4f 7b 3e fb 70 99 bf
       1.4886118 1.3341206 0.24542159 -1.1987604
000110 1b b6 80 bf 12 f8 a2 bf 86 41 13 40 57 0a 32 c0
       -1.0055574 -1.2731955 2.3008742 -2.781881
000120 5f e6 6a 3f 62 d1 98 3e be 65 8d 3f 69 28 29 40
       0.9175777 0.29847246 1.1046674 2.6430914
000130 1c b5 a7 bf d7 34 f9 bf 33 75 fb 3f 99 af 60 3f
       -1.3102145 -1.946925 1.9645141 0.8776794
000140 ff 9a dc bf a0 87 28 40 ba f5 2a bf d8 16 e4 bf
       -1.7234801 2.633278 -0.667812 -1.7819471
000150 ce 07 87 bf 9e d7 83 bf 85 94 08 bf 8e 9a 49 be
       -1.0549257 -1.0300176 -0.5335162 -0.19687864
000160 33 80 53 40 54 47 cf bf 47 7c a6 3f 39 98 ac bf
       3.3046997 -1.6193643 1.3006676 -1.3483955
000170 6b 97 05 bf 0a 1e 0a c0 a9 77 e4 be 16 2f 96 3e
       -0.5218417 -2.1580834 -0.44622543 0.293328
000180 ec bc 6c c0 36 e1 1e c0 74 28 2e 3f e2 d5 c4 3e
       -3.6990309 -2.4824958 0.68030477 0.3844443
000190 b5 40 22 40 2d 5b 19 40 f2 98 f2 be bf 98 af c0
       2.5351994 2.39619 -0.47382313 -5.487396
0001a0 d2 46 b2 40 01 cf f5 3d 7d 13 04 3f 07 28 5a bf
       5.571145 0.120023735 0.51592237 -0.85217327
0001b0 ed 22 7c bf f6 e5 b5 3e 10 23 05 c0 82 88 0c 3f
       -0.9849079 0.3552701 -2.080265 0.54895794
0001c0 8f 15 51 c0 3e 06 40 c0 a3 4b 1d 40 45 df f3 be
       -3.2669408 -3.000381 2.4577415 -0.4763128
0001d0 94 b6 09 bd 77 85 c1 bf aa 50 c3 3f e4 9a 43 3e
       -0.033621386 -1.5118855 1.5258992 0.19102055
0001e0 fc 26 d1 3f 42 e6 0f 3f 4e fe 30 bf 37 2f 0d 40
       1.6340022 0.5621072 -0.6913804 2.2060068
0001f0 47 3e b4 3e bc 1b 28 3e 82 03 22 be 9c 15 6f c0
       0.35203764 0.1641683 -0.1582165 -3.735694
000200 b7 15 1b c0 fe 76 7f 3f 0b 34 b9 be af f0 94 bf
       -2.4232004 0.9979094 -0.36172518 -1.1635951
000210 c0 19 ad be 01 e9 16 3e 23 fb b8 3f 1c 0a 18 bf
       -0.33808708 0.14737321 1.4451641 -0.59390426
000220 8a 98 96 bf ab 3f f2 3e bb f5 8a 3f b6 a1 2c 3f
       -1.1765301 0.473142 1.0856241 0.6743425
000230 e9 ce 49 3f c0 80 21 3f e7 73 9f 3f 05 d7 ee 3f
       0.78831345 0.6308708 1.2457246 1.8659369
000240 7c f1 c7 3e b3 f3 12 c0 66 c6 58 be 17 ec 30 40
       0.39051425 -2.2961242 -0.21169433 2.7644098
000250 7c 97 ab 40 81 f2 6f 40 b5 55 c5 bf 4d f0 17 40
       5.3622417 3.7491763 -1.5416781 2.3740418
000260 27 d9 89 bf d1 27 09 40 cf fc b8 3e 9f 61 fd bf
       -1.0769395 2.1430552 0.36130378 -1.9795417
000270 61 67 ca 3f 07 3b a8 3f a3 0d af 3f 10 04 69 3f
       1.5812799 1.3143014 1.3676037 0.91021824
000280 9a 7e 17 40 f7 7a 67 bf ff 69 5e 3f a9 df bc bf
       2.3671021 -0.90422004 0.8688049 -1.4755756
000290 d4 58 ba bf ee da 17 c0 61 bb 14 3f 72 34 65 40
       -1.4558358 -2.3727374 0.5809842 3.581326
0002a0 22 2e a6 c0 1d 1f 5e bf 69 9c 13 bf 7d a5 6e 3f
       -5.1931314 -0.86766225 -0.5766054 0.93221265
0002b0 61 3b 6a 3f e9 c3 63 40 73 aa 2d 40 ef 28 23 c0
       0.91496855 3.5588324 2.7135284 -2.5493734
0002c0 6d 9f 9e c0 ad 8b 8b bf 28 df 34 bf b0 d2 96 3e
       -4.956961 -1.0902001 -0.7065301 0.29457617
0002d0 68 ba fb 3f be 61 8b 40 e1 84 b2 bf a1 e7 62 3f
       1.9666262 4.3556814 -1.3946801 0.8863469
0002e0 5c d9 40 40 9e d2 e4 3f 4e 33 89 3f 6a 74 52 bf
       3.0132666 1.7876775 1.0718782 -0.82208884
0002f0 4f dc e5 3f 25 92 56 bf 23 06 bb be 1a 40 b6 bd
       1.7957858 -0.8381675 -0.3652812 -0.08898945
000300 14 ae 66 40 85 60 03 40 3d d8 6c be 7d 62 de be
       3.604375 2.052766 -0.23129363 -0.43434516
000310 28 f0 b5 3e 54 e8 ef bf 81 0b bc bf d4 a0 2c bf
       0.35534787 -1.8742776 -1.4691011 -0.67432904
000320 f8 54 91 40 5d 38 4f 3d f4 36 45 bf 6b 9c a8 3f
       4.541622 0.05059086 -0.77036977 1.3172735
000330 f3 3d 09 c0 97 c9 a1 bf 62 44 bb 3f 9f b7 0a 40
       -2.144406 -1.2639645 1.4630244 2.1674573
000340 9f 0d 38 3e 01 fc 1d 3f 0d e3 98 bf 23 ce 54 c0
       0.17973946 0.6171265 -1.194429 -3.3250816
000350 9e 3c 41 3e 9c 1a 53 be 5d 66 4b bf 53 0a 9f 3f
       0.1887078 -0.2061562 -0.7945307 1.2425026
000360 30 b2 88 40 9b 71 2d c0 27 89 06 40 49 5c 68 40
       4.2717514 -2.710059 2.102121 3.6306326
000370 e5 1e 18 c0 69 4d fb 3e 8e 54 58 3e 5a 54 85 3f
       -2.3768857 0.49082497 0.21126005 1.0416367
000380 a6 19 54 c0 ff cc b4 3f 1f 7d 94 bf 99 b0 5c bf
       -3.3140655 1.412506 -1.1600684 -0.86206967
000390 74 45 78 bf 40 b1 9e 3f 72 17 0c 40 c0 5c f9 be
       -0.9698098 1.2397842 2.188931 -0.48703575
0003a0 08 42 98 bf 50 52 58 c0 0c cf 50 be b1 6e 36 3f
       -1.1895151 -3.380024 -0.20391482 0.7126265
0003b0 da 04 ff 3f 57 f6 02 40 71 fa f8 3f b8 a2 b8 be
       1.9923356 2.0462854 1.9451429 -0.36061645

fc1.bias f4 [30]
000000 54 f1 59 be 67 75 ba 3f c4 47 6a c0 98 ea 01 3f
       -0.21283466 1.4567078 -3.6606302 0.50748587
000010 75 34 c6 be 94 59 e4 3f 52 af 3c 40 c8 5e 22 c0
       -0.38711897 1.7839837 2.9482007 -2.537035
000020 d9 54 c3 3e e2 b5 16 c0 7c eb a9 3f 95 50 8d 3e
       0.3815067 -2.3548512 1.3274989 0.27600542
000030 16 b2 11 40 c7 be 9b c0 ef 5d 4d 3f 8c c8 ab 3d
       2.2764945 -4.8670382 0.80221456 0.08387861
000040 86 6f 59 c0 b2 a4 6b c0 f8 ca f3 3f 30 85 03 40
       -3.3974319 -3.6819272 1.9046316 2.0550041
000050 0c 2b 69 40 37 69 c0 3f a4 27 4f c0 8b a5 ae 3e
       3.6432524 1.5032109 -3.2367945 0.34110674
000060 1c f8 1c 40 a2 78 41 40 37 08 f9 3f 09 83 d3 3e
       2.4526434 3.0229878 1.9455632 0.4131091
000070 80 81 6c 40 70 d4 1a c0
       3.695404 -2.4192162

out.weight f4 [2, 30]
000000 c0 10 6a bf 68 47 15 c0 5f 64 06 c0 64 43 9f be
       -0.9143181 -2.3324833 -2.0998762 -0.31106102
000010 2a 0f 86 40 51 ec 31 40 4a 05 24 40 09 8c 84 c0
       4.189351 2.7800486 2.5628228 -4.142094
000020 14 1a 04 41 07 22 e6 3e 9e 7f 8d c0 95 d8 29 be
       8.256367 0.44947836 -4.4218283 -0.16586526
000030 de 69 80 40 c1 ff 27 40 a3 e2 0b 40 07 71 12 bf
       4.0129232 2.624985 2.1857078 -0.57203716
000040 ba d8 01 40 b3 b7 a8 40 6a 86 56 bf 71 e2 5b 40
       2.028853 5.272424 -0.8379885 3.435696
000050 ec e8 c4 40 e5 f6 8f 3f bc 04 a4 c0 1f c8 82 c0
       6.153433 1.1247221 -5.125578 -4.086929
000060 bd 06 3f c0 22 72 0a c0 5f f4 24 40 0a e7 9b bf
       -2.9847863 -2.163216 2.5774152 -1.2179883
000070 7f 2d 50 c0 68 3d 1f c0 f8 29 5d c0 b1 4a f9 bf
       -3.2527769 -2.488123 -3.4556866 -1.9475919
000080 db 17 97 40 38 a2 b3 bf 00 df 1e c0 b0 38 14 c0
       4.721662 -1.403388 -2.4823608 -2.31596
000090 02 44 0f 3f 66 81 3c c0 db 99 1c 3f 24 e2 02 c0
       0.55963147 -2.9453979 0.61172265 -2.0450525
0000a0 61 4a a1 3f 6d e3 f2 c0 78 a0 44 40 35 25 de 40
       1.2600824 -7.590262 3.0722942 6.942042
0000b0 d1 22 9e 40 86 b4 23 c0 b6 aa f2 c0 c4 7f 42 40
       4.94175 -2.5578933 -7.5833387 3.0390482
0000c0 cc 68 b9 40 5a 82 62 40 55 aa a0 c0 7a ec c6 40
       5.7940426 3.539206 -5.0207925 6.216367
0000d0 3c 21 eb c0 b1 9a 4e be 00 e3 90 40 c0 37 02 c0
       -7.347807 -0.20176198 4.52771 -2.0346527
0000e0 84 df 4a 3f 5e b5 bf 40 1c 01 d7 bd df 7e bc bf
       0.7924731 5.9908895 -0.104982585 -1.4726218

out.bias f4 [2]
000000 2b 6e cf 3f 34 9b 7e bf
       1.6205496 -0.9945557
