DDPG/critic_weights.pth (torch, 3415 bytes, 5 tensors)

fcs.weight f4 [30, 8]
0	0x3dd764e5	0.10517291
1	0x40108bee	2.2585406
2	0xbd53c50e	-0.051701598
3	0xbfb68e93	-1.426226
4	0x402c0572	2.6878324
5	0x3f8a5b28	1.0809069
6	0x3fb59452	1.4185889
7	0xbcf6ff5c	-0.030151062
8	0x3ff7e618	1.9367094
9	0x3edb5ae9	0.42842796
10	0x3f06fa2f	0.527255
11	0xbf012149	-0.50441414
12	0xbfb07e5f	-1.3788565
13	0xbfda0e25	-1.7035567
14	0xbf648bbb	-0.8927571
15	0x3e68b0db	0.22723715
16	0x41007dce	8.030714
17	0x3fb15e3b	1.3856882
18	0x3d894e00	0.067043304
19	0xbfa51c6d	-1.28993
20	0x3e8d04e3	0.2754279
21	0xbf97e227	-1.1865891
22	0xbf0f2588	-0.55916643
23	0xbffe3a66	-1.9861572
24	0xbef022be	-0.46901506
25	0x4080f803	4.030275
26	0xc00b40b1	-2.1758235
27	0xbd851a74	-0.06499186
28	0x413d26c5	11.821965
29	0x41233308	10.199959
30	0xbf198d5c	-0.5998132
31	0xc020ecf7	-2.5144632
32	0x413bc6c6	11.736029
33	0xbf3b973a	-0.7327763
34	0x3fa880fc	1.3164363
35	0xbe3d3c63	-0.18480067
36	0x3f8995e8	1.0748873
37	0xbef1171d	-0.47087947
38	0xbf605f91	-0.8764582
39	0xbfa734c9	-1.3062984
40	0xc135163a	-11.317926
41	0x3fa248a2	1.2678416
42	0xbfb70769	-1.4299136
43	0xbeea3b48	-0.45748353
44	0x3f5fa7ac	0.8736522
45	0x3f47b6d5	0.78013355
46	0xbe07f19f	-0.13275765
47	0xbf08ca59	-0.5343376
48	0x40f5e0cb	7.6836905
49	0xbfff8805	-1.9963385
50	0x40c5eaf0	6.184929
51	0x3fc86dff	1.5658568
52	0xc0b48441	-5.6411443
53	0xc01bcefd	-2.4345086
54	0xbd1a975c	-0.037742004
55	0xbf3cca9e	-0.7374667
56	0x40ae9f4c	5.4569454
57	0xbfca56a6	-1.5807693
58	0x403eba64	2.9801264
59	0xbf292a9c	-0.6608064
60	0xbfa218cb	-1.2663816
61	0xbfa4ab5b	-1.2864794
62	0xbf657ef1	-0.8964682
63	0xbfaf8663	-1.3712887
64	0xc072aeb7	-3.7919137
65	0xbe37eba7	-0.17960988
66	0xc01f392e	-2.487865
67	0x3e4d5969	0.20053639
68	0x40160f7f	2.3446958
69	0x3faa14af	1.3287562
70	0xbf50c8cd	-0.815564
71	0xbf53c4cf	-0.8272218
72	0x40853783	4.1630263
73	0x3f256567	0.6460785
74	0x3e85ba38	0.26118636
75	0xbdd5e5be	-0.104442105
76	0x40be02b1	5.9378285
77	0x3f9632b4	1.1734223
78	0xc014c8fa	-2.3247666
79	0xc05db1a5	-3.4639676
80	0xbff5ef09	-1.9213573
81	0x409980fa	4.796994
82	0xbe228f81	-0.15875055
83	0xc0ab1351	-5.346108
84	0xbf41be54	-0.7568104
85	0xbf672d96	-0.90303934
86	0x3f0ac1a2	0.5420171
87	0xbe0a53f1	-0.13508584
88	0xc0fba95c	-7.8644238
89	0x3f44a3bf	0.76812357
90	0xbf87fd97	-1.0624264
91	0xbed9869e	-0.42485517
92	0xbee58caf	-0.44833896
93	0x3fd71af3	1.6805099
94	0x3f22dc5f	0.6361751
95	0x400829b0	2.1275444
96	0xc13818c0	-11.5060425
97	0x3ef63058	0.48083758
98	0xbfc67653	-1.550486
99	0x400d421d	2.2071602
100	0x3f243a88	0.6415181
101	0x3fc588e3	1.54324
102	0x3e4fdc23	0.20298819
103	0xbfea1a79	-1.8289329
104	0xc104f525	-8.30985
105	0xc01183d6	-2.2736716
106	0xbeff056c	-0.49808824
107	0x401860e9	2.380915
108	0x408948b2	4.290124
109	0x40c976d4	6.2957554
110	0xc039a300	-2.9005737
111	0xc02c1ecc	-2.6893797
112	0xbfc9813c	-1.5742564
113	0xc0b60f82	-5.689393
114	0x3eeb9d94	0.4601866
115	0x4011e9d1	2.279896
116	0x3fa54706	1.29123
117	0x40e0a38d	7.0199647
118	0xbf154337	-0.58305687
119	0xc0ad2c27	-5.4116397
120	0xbfe21826	-1.766362
121	0xbf117665	-0.5682128
122	0x3e3e5b0f	0.18589424
123	0x40050f57	2.0790613
124	0xbf154e54	-0.58322644
125	0xbfaeb377	-1.3648518
126	0xbf3f224c	-0.7466171
127	0xc08c63e5	-4.387194
128	0xc14fc7af	-12.986251
129	0x3dbb10e5	0.09134082
130	0xbfda917e	-1.7075651
131	0x3f4fe4f6	0.8120874
132	0xbd052ac9	-0.032511506
133	0x3ee1e53e	0.4412021
134	0xbe392166	-0.18079147
135	0xbf451758	-0.76988745
136	0x3e964459	0.2934902
137	0xc047b7cb	-3.1205928
138	0x3e5c99cb	0.21543042
139	0x40226319	2.5372984
140	0xc09c9d6a	-4.8942156
141	0xbe00c1a3	-0.12573867
142	0xc0896a7c	-4.2942486
143	0xbeb507b7	-0.35357448
144	0x405667b5	3.3500798
145	0xc0fc6652	-7.8874903
146	0x3fcebafb	1.6150812
147	0xc0255655	-2.5833943
148	0xc0459f9c	-3.0878668
149	0xc054bc24	-3.3239832
150	0x400cb788	2.1987019
151	0xbf5ad5c4	-0.8548243
152	0xc0137fc5	-2.3046734
153	0x3fae540f	1.3619403
154	0xbe71229e	-0.23548362
155	0xc04f14a6	-3.2356353
156	0x404cb086	3.1982741
157	0x3fae8ded	1.3637062
158	0xbf0b42ca	-0.5439879
159	0xbf6e83a0	-0.93169594
160	0x3f8f0c1f	1.1175574
161	0x409f4a08	4.977787
162	0x400fa82c	2.2446394
163	0x403172eb	2.772639
164	0x3f2bb5fb	0.67074555
165	0x3fe7d739	1.8112556
166	0xc00c67af	-2.1938283
167	0xc0509679	-3.2591841
168	0xbef64cd0	-0.48105478
169	0xc01a7f8f	-2.4140356
170	0xbe212525	-0.15736826
171	0xc06b5b54	-3.6774492
172	0xbf145c53	-0.57953376
173	0xbf2bcbe6	-0.67108
174	0x3eb88341	0.3603764
175	0x3f9ed553	1.2408851
176	0xbe7a13b1	-0.24421574
177	0x3fd0463b	1.6271433
178	0x3de51d4b	0.11187228
179	0xbf2deb02	-0.6793672
180	0xbea8484c	-0.32867658
181	0x3f3e4c19	0.74334866
182	0x3f9a3d22	1.2049906
183	0x3fef15a0	1.8678474
184	0xc085a034	-4.175806
185	0xc11734de	-9.450407
186	0x3ebf213d	0.37330046
187	0x40baeb5c	5.8412304
188	0x40237416	2.5539603
189	0x3f112512	0.5669719
190	0x3e3eba49	0.1862575
191	0xbd07e77e	-0.033179753
192	0xc0091d98	-2.1424313
193	0x40482ffc	3.1279287
194	0x3e913199	0.28358153
195	0xbfdc066a	-1.7189457
196	0xbe96f587	-0.29484197
197	0xbfd4516b	-1.6587347
198	0x3e7819cf	0.24228595
199	0xbefbcef2	-0.49181324
200	0xc0a1f2a3	-5.0608687
201	0xbf3de830	-0.74182415
202	0x3f934411	1.1505147
203	0xbf6e89c7	-0.9317898
204	0x4025445c	2.5822973
205	0x3fe546fc	1.7912288
206	0xc02acc58	-2.6687222
207	0xc0b4ec23	-5.6538253
208	0xc03bbb2b	-2.9332988
209	0x400a4355	2.1603596
210	0xc0935a19	-4.6047482
211	0x3dcccca3	0.09999969
212	0x40a67af6	5.20251
213	0x400bec6e	2.1863055
214	0xbfa88e36	-1.3168399
215	0xbe8a66e3	-0.2703162
216	0x411b2be8	9.698219
217	0x3fc6113b	1.5474008
218	0xbf2ec7e1	-0.6827374
219	0x3fe9314e	1.8218172
220	0xc0612918	-3.5181332
221	0xc037077d	-2.859832
222	0xc09afd8e	-4.8434515
223	0xbfa296cf	-1.2702273
224	0xc095470c	-4.6649227
225	0xbe5ead21	-0.21745731
226	0x3d494e3a	0.04914687
227	0xc085764b	-4.17069
228	0x4056c74d	3.3559144
229	0x408d1341	4.4086003
230	0xbf3125da	-0.6919838
231	0x3fcb1fc0	1.5869064
232	0x40df1123	6.970842
233	0xbfd070ad	-1.6284386
234	0x40c11031	6.0332265
235	0x3fab21fc	1.3369746
236	0xc0a38b73	-5.1107726
237	0xc03b8b9f	-2.9303968
238	0x3d8e693d	0.06953666
239	0xbf8d52b6	-1.1040866

fcs.bias f4 [30]
0	0x40529158	3.290121
1	0x3f852a25	1.0403486
2	0x40843c97	4.132396
3	0xc0cf2b8a	-6.474065
4	0x40be6cf7	5.9508014
5	0x40c5a428	6.1762886
6	0x408b8293	4.359689
7	0x4029555d	2.6458352
8	0x4021ed3f	2.5301054
9	0x4064a658	3.5726528
10	0x407d1ba7	3.9548128
11	0xc0a2b2d3	-5.084329
12	0xc0a0a019	-5.019543
13	0xc0118e52	-2.2743115
14	0x4019528a	2.3956628
15	0x408e3ecd	4.445166
16	0x409229d4	4.567606
17	0x409fc5a7	4.9928775
18	0x3eec68cb	0.461737
19	0xbd0391d4	-0.032121494
20	0xc09b2a3f	-4.848907
21	0x40030887	2.0473955
22	0x40881b8b	4.253362
23	0xbe5f9af4	-0.21836454
24	0x40bc632b	5.8871055
25	0x406a5ccd	3.661914
26	0x3f1995f7	0.59994453
27	0x4000581c	2.0053778
28	0x40522d64	3.2840204
29	0x4064037f	3.5627134

fca.weight f4 [30, 2]
0	0xbc695770	-0.014242038
1	0xbe9cbc83	-0.30612573
2	0x3e704b76	0.23466286
3	0x3e63b9da	0.22238865
4	0x3e7246d7	0.23659836
5	0x3d8e2990	0.06941521
6	0x3ee33199	0.44373778
7	0xbf139de7	-0.57662815
8	0x3da97998	0.08275145
9	0xbe1a6b73	-0.15080051
10	0x3dc211a9	0.09476025
11	0xbe367787	-0.17819034
12	0xbe360dd3	-0.17778711
13	0x3e09dba1	0.13462688
14	0x3e2a8db7	0.16655622
15	0x3e78fa94	0.24314338
16	0xbb9996dd	-0.0046871738
17	0x3cf1805e	0.029480156
18	0xbf2e975f	-0.68199724
19	0xbe011223	-0.12604575
20	0x3e3adb63	0.18247752
21	0x3d17ac11	0.03702933
22	0xbeff3032	-0.49841458
23	0xbea7170b	-0.32634768
24	0xbf872a1d	-1.0559727
25	0xbf1d421c	-0.61429
26	0xc02ac2cd	-2.6681397
27	0xbf5dda2a	-0.86661017
28	0xbf2c2a88	-0.672524
29	0xbe90fae7	-0.28316423
30	0xbe334afb	-0.17509072
31	0x3bd2f53a	0.0064379247
32	0x3d6fd735	0.058554847
33	0x3cefbef2	0.029265855
34	0xbe24aeba	-0.16082278
35	0x3e2a9941	0.16660024
36	0xbff4276f	-1.9074534
37	0x3e857dd3	0.2607256
38	0xbefb4fbe	-0.49084276
39	0xbe143171	-0.14471985
40	0x3ed63206	0.4183504
41	0x3ddfd0ff	0.10928535
42	0x3e0436a4	0.12911469
43	0x3d4ecc75	0.050487954
44	0xbf146afc	-0.57975745
45	0xbf3a84ea	-0.7285906
46	0x3daca419	0.08429737
47	0xbd8bd746	-0.068281695
48	0x3fba8815	1.4572779
49	0x3b660c00	0.0035102367
50	0x3d996d53	0.07491555
51	0x3e840927	0.25788233
52	0xbf65e0eb	-0.8979632
53	0xbe91cf31	-0.28478387
54	0x3e834329	0.25637177
55	0x3f4d5b89	0.80217797
56	0xbd894353	-0.06702294
57	0xbecececf	-0.40392157
58	0xbe0e3b3d	-0.13889785
59	0x3dc3a4ca	0.095529154

fca.bias f4 [30]
0	0x40415af0	3.0211754
1	0x3f6d551e	0.92708004
2	0x40828cd2	4.07969
3	0xc0c46a1c	-6.137953
4	0x40b2e7a3	5.590776
5	0x40b46fee	5.6386633
6	0x4069ba41	3.651993
7	0x406838eb	3.628474
8	0x403a6f03	2.9130256
9	0x4043cd4c	3.0594053
10	0x40752ccf	3.83086
11	0xc0bc087b	-5.876035
12	0xc09328f1	-4.5987477
13	0xc00b9b12	-2.1813397
14	0x400158b1	2.0210383
15	0x409cf1b3	4.9045043
16	0x40a2ec74	5.091364
17	0x4099cc1b	4.806165
18	0x3f822072	1.0166152
19	0x3cdf0902	0.027225975
20	0xc0aaba29	-5.3352246
21	0x403cf14b	2.9522274
22	0x4097f715	4.7489114
23	0x3e3eca18	0.1863178
24	0x40c220af	6.0664897
25	0x4079e3ad	3.9045212
26	0x3f0ff20c	0.5622871
27	0x4009be85	2.1522534
28	0x40861221	4.189713
29	0x40722ed1	3.7841074

out.weight f4 [1, 30]
0	0x40e890de	7.267684
1	0x41054248	8.328682
2	0x4121cf85	10.113164
3	0xbf021217	-0.5080885
4	0xc0e1440c	-7.0395565
5	0x41384f6a	11.519388
6	0xc1109928	-9.037392
7	0xc023139f	-2.5480726
8	0xc085ee88	-4.1853676
9	0xbfb0474c	-1.3771758
10	0xc08bfed0	-4.374855
11	0x4135573e	11.333799
12	0xc09e0208	-4.937748
13	0xc00b158f	-2.1731908
14	0xc025e445	-2.5920575
15	0xc03c8caf	-2.9460866
16	0xc11c1bad	-9.756757
17	0x3fe6d9a2	1.8035166
18	0xc006192c	-2.0952864
19	0xc0b90543	-5.7818923
20	0xbf8f53fc	-1.1197505
21	0x404017d1	3.0014536
22	0xbfe21d88	-1.7665262
23	0xc11f3511	-9.950456
24	0xc066e5a5	-3.6077664
25	0x40b2b967	5.585132
26	0x40568362	3.351769
27	0xc02f05a5	-2.7347195
28	0xbff91c4f	-1.9461764
29	0x4131d631	11.114793
