DDPG/critic_weights.pth (torch, 509249 bytes, 11 tensors)

fc1.weight f4 [400, 8]
0	0xbeb5d69b	-0.35515293
1	0x3e35c754	0.17751819
2	0x3c8cefe6	0.017204236
3	0x3dd1d099	0.10244865
4	0x3e910045	0.28320518
5	0xbe9942a6	-0.2993366
6	0xbe10aac1	-0.14127637
7	0x3e511764	0.20419079
8	0xbc00b3a1	-0.007855327
9	0xbd82b1dd	-0.06381581
10	0xbd7ef7d7	-0.062248077
11	0xbed2e915	-0.41193452
12	0x3e6a1b97	0.22862087
13	0xbebf60b0	-0.37378454
14	0xbe65d23b	-0.22443478
15	0x3dec1eef	0.115293376
16	0x3e87efca	0.26550132
17	0x3e96ede9	0.29478386
18	0xbe8d260c	-0.2756809
19	0x3c96fe6a	0.018431861
20	0x3e18300c	0.14862078
21	0xbec0ba70	-0.3764224
22	0x3eeaa856	0.45831555
23	0x3e80cff1	0.25158647
24	0x3db9aa7f	0.09065723
25	0x3ec2208f	0.37915465
26	0xbe22452a	-0.15846696
27	0x3d832fb5	0.06405584
28	0x3e244ca2	0.16044858
29	0x3ea06e77	0.31334278
30	0xbe44fcd0	-0.19237065
31	0x3e3b4cd4	0.18291026
32	0xbd8743f6	-0.066047594
33	0x3e045d76	0.12926278
34	0xbdaa04d1	-0.083017
35	0x3d52acbd	0.051434267
36	0x3cfebfc4	0.0310973
37	0x3e020b8d	0.12699719
38	0xbea0bdd5	-0.3139483
39	0x3df0d92a	0.11760171
40	0x3edf77b3	0.4364601
41	0xbf19e82f	-0.6011991
42	0xbdb83dd3	-0.08996167
43	0x3dcc7e4c	0.09985027
44	0x3ee7bc90	0.4526105
45	0x3e8607ef	0.26177928
46	0x3d854254	0.06506792
47	0x3e90f24b	0.28309855
48	0xbd6618b5	-0.056175906
49	0x3d7ada27	0.061243203
50	0xbe91e837	-0.28497478
51	0x3e9a90bd	0.30188552
52	0xbf0fca8a	-0.56168425
53	0x3e2653e2	0.16242936
54	0xbed00e9e	-0.40636152
55	0xbece456f	-0.4028735
56	0xbdd92509	-0.10602767
57	0x3b29202c	0.002580653
58	0x3ca69899	0.020336436
59	0xbe113374	-0.14179784
60	0x3e48a244	0.1959315
61	0x3d968e9a	0.07351418
62	0x3e5a1090	0.2129538
63	0xba00a598	-0.0004907488
64	0x3f269d3b	0.65083665
65	0xbf162f86	-0.58666265
66	0xbe7e0d70	-0.24809813
67	0xbe6ad5ca	-0.22933117
68	0xbe32e3a1	-0.17469646
69	0x3f2ec55b	0.6826989
70	0xbcce1358	-0.025155708
71	0x3ef66854	0.4812647
72	0xbf0c2507	-0.54744
73	0x3e69ff6b	0.2285134
74	0xbd7e1203	-0.062028896
75	0x3dcd59c8	0.1002689
76	0xbe955f95	-0.29174486
77	0x3e57cb82	0.21073726
78	0x3e83603b	0.25659356
79	0x3e950618	0.29106212
80	0x3e935125	0.28772846
81	0x3edad359	0.4273937
82	0xbf15d7f9	-0.58532673
83	0x3f03a820	0.51428413
84	0xbc29a484	-0.010354165
85	0xbecabb19	-0.3959587
86	0x3e241d3a	0.16026774
87	0x3ea46691	0.32109502
88	0xbe24b249	-0.16083635
89	0x3ed51490	0.4161725
90	0x3d0c0d27	0.03419223
91	0x3d95d7ad	0.073165275
92	0x3cc65ae1	0.024213256
93	0xbeaac148	-0.33350587
94	0xbe89c042	-0.26904494
95	0x3e18b520	0.14912844
96	0x3e6d4983	0.23172574
97	0x3e3a2b1f	0.18180512
98	0xbbe5d9fc	-0.007014511
99	0xbd832426	-0.06403379
100	0x3e71b95a	0.23605862
101	0xbe6028d0	-0.21890569
102	0x3c0e11d5	0.008671244
103	0x3ddd52cc	0.10806808
104	0x3ba7d05a	0.005121273
105	0x3e3d1751	0.18465926
106	0xbe867469	-0.2626069
107	0xbe114ab2	-0.1418865
108	0x3e2f0679	0.17092313
109	0x3d2332f1	0.039843503
110	0xbe8f1dfe	-0.2795257
111	0x3e331637	0.17488943
112	0xbd70ac62	-0.058758147
113	0xbf5f579f	-0.87243074
114	0xbe0edc42	-0.13951209
115	0xbebb6bab	-0.36605582
116	0xbe338b40	-0.17533588
117	0x3e9d73c6	0.3075239
118	0xbe5fdc13	-0.21861295
119	0x3e741adb	0.2383837
120	0xbf5d4a44	-0.86441445
121	0x3d76ac81	0.060223106
122	0x3e56cbf3	0.20976238
123	0xbd6cd1cb	-0.05781726
124	0x3d689892	0.056786127
125	0x3e4a698f	0.1976683
126	0x3d0162bf	0.031588312
127	0x3ce23f83	0.027618175
128	0xbf05f130	-0.5232115
129	0xbea6a677	-0.32548878
130	0x3e2743b6	0.16334423
131	0xbeca9f7e	-0.39574808
132	0x3ec0c7ef	0.37652537
133	0x3e728038	0.23681724
134	0xbe57413a	-0.21020976
135	0xbed9b1ea	-0.4251855
136	0xbe1d4529	-0.15358414
137	0x3ee65dd7	0.4499347
138	0xbdd33132	-0.10312118
139	0x3d5d88c4	0.054085508
140	0x3d056bac	0.032573387
141	0x3d139c38	0.036037654
142	0x3e4596d8	0.19295824
143	0x3ec51570	0.38492918
144	0xbcb14b44	-0.021642335
145	0x3df130d6	0.11776893
146	0x3e0eff2a	0.13964525
147	0x3ec87fc0	0.39159966
148	0xbe725dad	-0.23668547
149	0x3ead199e	0.33808607
150	0xbd4ee260	-0.050508857
151	0x3f1b0b4f	0.6056413
152	0xbf372340	-0.7153816
153	0xbcf390bf	-0.029732106
154	0x3e3f7e98	0.18700635
155	0x3dc57939	0.09642262
156	0x3e843fad	0.2582983
157	0xbdcdd73c	-0.10050818
158	0x3ee601c6	0.44923228
159	0x3ed265d0	0.41093302
160	0xbda1bb7c	-0.07897088
161	0x3ea21a9a	0.3166092
162	0xbe05b358	-0.13056695
163	0xbe02834f	-0.12745403
164	0x3e3869eb	0.18009154
165	0xbe53085f	-0.20608662
166	0x3e1b1b0c	0.15147036
167	0x3f2021e9	0.6255174
168	0xbcf00b85	-0.029302368
169	0x3f0e791b	0.5565354
170	0xbc842f05	-0.016135702
171	0x3e05e806	0.13076791
172	0x3e48c21c	0.19605297
173	0xbe9cef43	-0.30651292
174	0xbea72dd8	-0.32652164
175	0xbd6fd6df	-0.058554526
176	0x3e9ae3cb	0.30251917
177	0x3e8b3a01	0.2719269
178	0xbead156d	-0.3380541
179	0xbd549622	-0.05190099
180	0x3e56faed	0.20994158
181	0x3cfe8cef	0.031073062
182	0xbe94e9b8	-0.29084563
183	0x3d07ba4a	0.033136643
184	0x3ebe319a	0.37147218
185	0x3e85a6aa	0.26103717
186	0x3e40a231	0.18811871
187	0xbd850c3e	-0.06496476
188	0x3e219100	0.1577797
189	0x3dafa2f3	0.08576002
190	0xbe12dd8d	-0.14342327
191	0x3ebc1959	0.3673809
192	0x3d15d07f	0.03657579
193	0x3c7c9578	0.0154164955
194	0xbe868ab4	-0.26277697
195	0xbec372e3	-0.3817359
196	0xbe2c120d	-0.16803761
197	0x3e6541c7	0.22388373
198	0xbea19993	-0.3156248
199	0x3e6345fa	0.22194663
200	0x3f2112f7	0.62919563
201	0x3d181433	0.03712864
202	0x3edf4329	0.43605927
203	0xbcfdefc3	-0.030998116
204	0xbf83828f	-1.0274218
205	0xbd0caa72	-0.034342237
206	0xbccef3d6	-0.025262754
207	0x3d1f2be3	0.038860213
208	0xbf47be6a	-0.78024924
209	0x3d9dd15c	0.07705948
210	0x3e5277ea	0.20553556
211	0xbe3d45a9	-0.18483604
212	0x3e11f6ed	0.14254351
213	0xbe3dd2fc	-0.18537515
214	0xbe726081	-0.23669626
215	0xbc6a2fdf	-0.01429364
216	0x3ebf1f96	0.37328786
217	0x3dead023	0.1146548
218	0xbecd3c04	-0.4008485
219	0xbd306748	-0.043067247
220	0xbea432ec	-0.320701
221	0xbdd077d8	-0.101791084
222	0x3ea4a8a8	0.32159925
223	0x3df6e072	0.12054528
224	0x3e977b77	0.29586384
225	0x3ebfd5a9	0.37467697
226	0xbe92b061	-0.2865019
227	0xbe4d0a6d	-0.20023508
228	0x3ed69b0c	0.41915166
229	0xbef3c5a5	-0.47611728
230	0x3e70ba4e	0.2350857
231	0x3e15365d	0.14571519
232	0x3e9cb551	0.30607083
233	0xbd6ad3e3	-0.057330977
234	0x3e11f917	0.14255176
235	0xbe0107af	-0.12600587
236	0x3e31662f	0.17324136
237	0x3e9df860	0.30853558
238	0x3eca5349	0.39516667
239	0x3b14ce18	0.002270585
240	0x3f1607d5	0.586057
241	0x3d6b7ff7	0.057495084
242	0xbe620a13	-0.22074156
243	0x3eed7207	0.46376058
244	0x3e4eb55d	0.20186372
245	0xbced51e5	-0.028969714
246	0x3d1545b8	0.036443442
247	0x3ca6f60e	0.020381
248	0x3f0ddfca	0.554196
249	0xbee521ff	-0.447525
250	0xbee07780	-0.4384117
251	0xbe103d55	-0.14085896
252	0x3e53a9d7	0.20670258
253	0x3dfda465	0.123848714
254	0xbe28fbe4	-0.16502339
255	0x3d993fca	0.0748287

fc1.bias f4 [400]
0	0xbe8ee06b	-0.27905592
1	0x3edc5d50	0.43039942
2	0x3e735f47	0.23766814
3	0x3eadea15	0.33967653
4	0x3ecb2fd6	0.39684933
5	0x3e6437f3	0.22286968
6	0x3f1aab35	0.6041749
7	0x3eb8d302	0.36098486
8	0x3e067e51	0.13134123
9	0xbedbd04c	-0.42932355
10	0xbe639bd5	-0.22227414
11	0x3f2ba497	0.6704802
12	0x3eb46b98	0.35238338
13	0x3eec02db	0.4609593
14	0x3e68f197	0.22748409
15	0xbeb48463	-0.35257253
16	0x3a2c0cc9	0.00065631844
17	0x3f38face	0.722577
18	0x3f2418e3	0.64100474
19	0xbe4d2c6f	-0.20036481
20	0x3f2e4d03	0.6808626
21	0x3eea6776	0.4578206
22	0x3f4236ad	0.7586468
23	0xbf1b5b37	-0.6068606
24	0xbeb6d29a	-0.3570755
25	0x3e05b8ba	0.13058749
26	0xbecdf93e	-0.4022922
27	0x3edbd472	0.4293552
28	0x3f17c6c1	0.5928765
29	0xbf0f7cf8	-0.5605006
30	0x3e8f3f2f	0.27977893
31	0xbec9e725	-0.39434162
32	0xbd046cf0	-0.032330453
33	0x3e3a3de8	0.18187678
34	0x3e7a6e91	0.2445624
35	0xbe98d521	-0.29850104
36	0x3ec39d43	0.3820592
37	0xbdfbb560	-0.12290454
38	0x3e92d472	0.28677708
39	0x3efd18f1	0.4943309
40	0xbe970bd0	-0.295012
41	0xbefe1bb7	-0.4963052
42	0x3ef72f70	0.4827838
43	0x3f1ab6bf	0.604351
44	0x3d6ad60b	0.057333034
45	0x3ddb7b29	0.1071685
46	0xbf0deec6	-0.55442464
47	0xbea9d2ef	-0.33168742
48	0x3ec2f07a	0.38074094
49	0x3e67036c	0.22559899
50	0x3f00f6f3	0.50376815
51	0xbde09f1e	-0.10967849
52	0xbed86d70	-0.42270994
53	0x3eed3e56	0.4633662
54	0xbe9cdc82	-0.30636984
55	0xbe57e935	-0.21085055
56	0x3f1ac049	0.60449654
57	0x3eef0c54	0.46689093
58	0x3f1cc113	0.6123211
59	0x3eeca579	0.46219996
60	0x3f3401bf	0.70315164
61	0x3f1594a9	0.5842996
62	0xbe1f496a	-0.15555349
63	0xbf128576	-0.57234895
64	0x3f207b54	0.62688184
65	0xbe95a87c	-0.29230106
66	0xbe388cfe	-0.18022534
67	0x3ed1f3cf	0.41006324
68	0x3d4536ce	0.04814797
69	0x3e8c71a1	0.27430442
70	0xbf014f96	-0.50512064
71	0xbe5cefce	-0.21575853
72	0x3f0bac0a	0.54559386
73	0x3dd00177	0.101565294
74	0xbd84cf42	-0.06484844
75	0xbe9e6491	-0.309361
76	0x3e7a415a	0.24438992
77	0x3d9fa938	0.07795948
78	0x3ea8d1b2	0.32972485
79	0xbe776e18	-0.24163091
80	0x3ed5a6a4	0.417287
81	0x3eca9d9d	0.39573374
82	0x3f48eeba	0.7848927
83	0xbec8df3b	-0.3923281
84	0xbefcce0b	-0.49375948
85	0xbef848cd	-0.48493043
86	0x3ed1c311	0.40969136
87	0x3f042c5b	0.5163018
88	0xbe3dd917	-0.18539844
89	0x3e9a63f5	0.30154386
90	0x3ebea373	0.37234077
91	0x3d037089	0.032089744
92	0x3d944a52	0.07240738
93	0x3cdbd77f	0.026836155
94	0xbeb4b183	-0.3529168
95	0x3e5e9bc3	0.21739106
96	0xbc118235	-0.008881141
97	0x3efd9fe0	0.49536037
98	0x3f3ac259	0.729528
99	0x3f336825	0.70080787
100	0x3f19c544	0.6006663
101	0xbe65192e	-0.22372887
102	0x3dce58a3	0.100755
103	0x3f35f004	0.7106936
104	0x3ed70b00	0.4200058
105	0x3e1351a0	0.14386606
106	0x3eed69cc	0.4636978
107	0xbdc8e262	-0.09808804
108	0xbe6fe638	-0.23427665
109	0x3e25ac68	0.16179049
110	0xbec42008	-0.38305688
111	0x3ea7260a	0.3264621
112	0x3ea21606	0.31657428
113	0x3ecf08fe	0.40436548
114	0x3f12edb4	0.57393956
115	0x3f3f54ac	0.74738574
116	0x3c8c582d	0.01713189
117	0xbefed09c	-0.4976853
118	0xbf22ead3	-0.63639563
119	0xbf007adf	-0.50187486
120	0x3ef6b70f	0.48186538
121	0xbf000ff8	-0.50024366
122	0x3f010488	0.5039754
123	0x3ec93348	0.39296937
124	0x3e9a7191	0.3016477
125	0x3eca99e5	0.39570537
126	0x3f4a5677	0.79038185
127	0x3e87981c	0.26483238
128	0xbe723528	-0.2365309
129	0x3ead139b	0.3380402
130	0xbebf4d67	-0.3736374
131	0x3e9a9122	0.30188853
132	0x3ed785a4	0.42094147
133	0xbed4104d	-0.41418687
134	0x3f16fe12	0.5898143
135	0xbe449fcb	-0.19201581
136	0xbe64e34d	-0.22352333
137	0x3f14cf09	0.5812841
138	0x3ee65f3a	0.44994527
139	0x3ec8c932	0.39216
140	0x3ec8ad23	0.39194593
141	0x3ed2d842	0.41180617
142	0x3e89a84a	0.26886207
143	0x3ee31286	0.4435007
144	0x3e78380a	0.24240127
145	0x3dddf763	0.10838201
146	0x3eb62832	0.35577542
147	0x3f4ae8bf	0.7926139
148	0x3efd5b2c	0.4948362
149	0x3e193f30	0.1496551
150	0x3f3843ee	0.7197865
151	0x3e9bf85c	0.3046292
152	0x3e29eed5	0.16595013
153	0xbdb3720a	-0.087619856
154	0x3ecd0b36	0.40047616
155	0x3f571e1e	0.8403033
156	0xbec2e695	-0.38066545
157	0x3e5e44d7	0.21705948
158	0x3f0d8ac2	0.5528985
159	0x3d20d3f3	0.03926463
160	0xbdd6bc88	-0.10485178
161	0x3e246bd9	0.16056766
162	0x3f017b4f	0.5057878
163	0xbf0a4e41	-0.54025656
164	0x3c5dc9bc	0.013536867
165	0x3f21f55a	0.63265
166	0x3eb40bcc	0.3516525
167	0x3f39a202	0.7251283
168	0x3ed0918f	0.40736052
169	0x3f13c7bb	0.5772664
170	0x3f10277c	0.5631025
171	0xbe5d2e79	-0.21599759
172	0xbeebc82c	-0.46051157
173	0xbe8d455d	-0.27591982
174	0x3eed6103	0.46363077
175	0xbe98f1d5	-0.29872003
176	0x3f346fc7	0.7048306
177	0x3f00810e	0.5019692
178	0x3ede4964	0.43415368
179	0xbe99321d	-0.29921046
180	0x3d71e48a	0.059055842
181	0x3e707b4a	0.23484531
182	0xbdfb4a3d	-0.12270019
183	0xbe9be89a	-0.30450898
184	0x3f2ea0fe	0.68214405
185	0x3e70eee5	0.23528631
186	0x3f116505	0.5679477
187	0x3f12dc6b	0.5736758
188	0xbdc615b0	-0.09672105
189	0x3ea4f565	0.3221847
190	0xbef35571	-0.47526124
191	0xbe22ad4a	-0.15886417
192	0xbe176e66	-0.14788207
193	0x3e33ddd4	0.1756509
194	0xbebd5416	-0.36978215
195	0x3d9502b2	0.07275905
196	0x3e34d41b	0.17659037
197	0x3cd136b2	0.025538776
198	0x3ef64f3f	0.48107335
199	0xbee8e0a7	-0.45483896
200	0x3e85dda4	0.2614566
201	0x3ea146e8	0.3149941
202	0xbf003ebe	-0.50095737
203	0xbe8c0e9c	-0.27354896
204	0x3f08c190	0.5342035
205	0x3f2febe3	0.6871931
206	0xbf0683fe	-0.52545154
207	0x3ee0fd84	0.43943417
208	0x3f26e343	0.65190524
209	0xbe642c51	-0.2228253
210	0xbe2b4171	-0.16724183
211	0x3eab5952	0.33466583
212	0x3e84f35d	0.2596692
213	0x3f0f1b92	0.55901444
214	0x3f25514a	0.6457716
215	0x3e6979e1	0.228004
216	0xbeb6bd34	-0.35691226
217	0xbf07108b	-0.5275962
218	0x3ec9d6c7	0.39421675
219	0x3ea1af20	0.31578922
220	0xbed6f960	-0.41987133
221	0x3f204447	0.6260418
222	0x3e4d4378	0.20045269
223	0x3e8aadc0	0.27085686
224	0xbea3dc5a	-0.32004052
225	0xbecbe23a	-0.39821035
226	0x3e4b127b	0.19831268
227	0x3e779f7c	0.24181932
228	0xbea8b5e0	-0.3295126
229	0x3f02b8cc	0.5106323
230	0x3ecaa211	0.39576772
231	0xbecd0979	-0.4004629
232	0xbee9a929	-0.4563687
233	0x3ec011a2	0.37513453
234	0x3f40a4ba	0.7525135
235	0xbdc989fc	-0.098407716
236	0xbdad08fd	-0.0844898
237	0xbe67b837	-0.22628866
238	0xbe013b70	-0.1262033
239	0x3e2cc234	0.16870958
240	0x3e4faf06	0.2028161
241	0x3f695099	0.9113861
242	0x3f20f73a	0.6287724
243	0x3f015ec4	0.50535226
244	0x3c608143	0.013702693
245	0xbe1c3c24	-0.15257317
246	0x3eee8f90	0.46593904
247	0xbea83342	-0.32851607
248	0x3f59869c	0.8497102
249	0x3e972f1c	0.2952813
250	0x3f2d4f6d	0.6769932
251	0x3f37f4e5	0.71858054
252	0x3eb00058	0.34375262
253	0xbde8a6b6	-0.113599226
254	0x3e9fc6fe	0.31206506
255	0xbe533cae	-0.20628616

ln1.weight f4 [400]
0	0x3f904f7e	1.1274259
1	0x3f0a4efc	0.5402677
2	0x3ed68654	0.4189936
3	0x3eece966	0.4627182
4	0x3f1668d1	0.5875369
5	0x3f349754	0.7054341
6	0x3f6da54f	0.92830366
7	0x3eedd596	0.46452016
8	0x3f8e97ca	1.1140072
9	0x3f7baaff	0.98307794
10	0x3f5bcdcd	0.858609
11	0x3f00daaa	0.50333655
12	0x3f0b4337	0.54399437
13	0x3ecdc3b7	0.4018838
14	0x3f92336c	1.1421943
15	0x3fc6848e	1.5509202
16	0x3f5b5ec9	0.85691506
17	0x3e89378b	0.26800188
18	0x3f45ad6e	0.7721776
19	0x3fa0297b	1.2512659
20	0x3e7ea784	0.2486859
21	0x3f3b93fc	0.7327268
22	0x3eb59c6e	0.3547091
23	0x3fa9cddd	1.326595
24	0x3f8a7936	1.0818241
25	0x3f944777	1.1584309
26	0x3fbf4260	1.4942131
27	0x3eb22812	0.34796196
28	0x3e9411d8	0.28919864
29	0x3f969c14	1.1766381
30	0x3f23dccc	0.64008784
31	0x3f9edb56	1.2410686
32	0x3f5a09f1	0.8517142
33	0x3f368b47	0.7130627
34	0x3f41c731	0.75694567
35	0x3fc8d126	1.5688827
36	0x3fc15303	1.5103458
37	0x3f65d9bb	0.89785355
38	0x3f6bb8ee	0.92079055
39	0x3eac632f	0.3366942
40	0x3f8daabd	1.106773
41	0x3fd589ff	1.6682738
42	0x3edbbea7	0.42918894
43	0x3f755118	0.95826864
44	0x3f4dd747	0.8040661
45	0x3f4a5915	0.7904218
46	0x3f9b631a	1.2139618
47	0x3f9de15c	1.2334399
48	0x3f17677e	0.5914229
49	0x3f98559c	1.1901126
50	0x3f96a54a	1.1769192
51	0x3f4f4f31	0.8098021
52	0x3fa5cf4c	1.2953887
53	0x3f8e6fab	1.1127828
54	0x3fa8e9b3	1.3196319
55	0x3f8a4f17	1.0805386
56	0x3eaa278b	0.33233294
57	0x3eb96b3b	0.36214623
58	0x3e8c3197	0.27381584
59	0x3f09b48b	0.5379111
60	0x3f026958	0.5094199
61	0x3f358fba	0.70922434
62	0x3f6dc7b9	0.9288288
63	0x3fa2f5de	1.2731283
64	0x3e8ca610	0.27470446
65	0x3fa84b60	1.3148003
66	0x3fe39c1b	1.7782015
67	0x3f3362f9	0.70072895
68	0x3f70d0be	0.94068515
69	0x3fa8a244	1.317452
70	0x3fbbe173	1.4678177
71	0x3f6a9a73	0.9164192
72	0x3f10b84e	0.56531227
73	0x3f3ebb10	0.74504185
74	0x3f702575	0.93807155
75	0x3fc9ffe0	1.5781212
76	0x4007757b	2.1165454
77	0x3f911539	1.1334602
78	0x3eb6c77a	0.35699064
79	0x3f945073	1.1587051
80	0x3f19ea43	0.6012308
81	0x3f330485	0.6992877
82	0x3ed17e77	0.40916798
83	0x3f902bdb	1.1263384
84	0x3f98e27b	1.1944116
85	0x3fb1ebd7	1.3900098
86	0x3f1e91b8	0.619411
87	0x3ed9e160	0.4255476
88	0x3fa616ff	1.2975768
89	0x3e8f4b29	0.2798703
90	0x3ef72750	0.4827218
91	0x3f8316e4	1.0241361
92	0x3f755743	0.95836276
93	0x3faf3ebf	1.3691024
94	0x3f9145f7	1.1349477
95	0x3fdb5901	1.7136537
96	0x3fa779d7	1.3084058
97	0x3e960e9d	0.29308024
98	0x3e835c48	0.25656343
99	0x3ea5cc8e	0.32382625
100	0x3efa0b86	0.48836917
101	0x3f8322ad	1.0244957
102	0x3f0a26e3	0.53965586
103	0x3ebf4831	0.37359765
104	0x3ebef27d	0.3729438
105	0x3f8d4b87	1.1038674
106	0x3f26efd1	0.6520968
107	0x3f32dbae	0.69866455
108	0x3f51a000	0.81884766
109	0x3f20654d	0.6265457
110	0x3f61eb4e	0.8824967
111	0x3f97e2e3	1.1866115
112	0x3f105809	0.5638433
113	0x3ec7c350	0.390162
114	0x3f50fd06	0.81636083
115	0x3ea37286	0.31923312
116	0x3f9625d8	1.1730299
117	0x3fdaa30b	1.7081007
118	0x3fbca0e6	1.4736602
119	0x3fae8896	1.3635433
120	0x3f3aac68	0.7291932
121	0x3fb0cfe6	1.3813446
122	0x3e98f230	0.29872274
123	0x3fb495ac	1.4108176
124	0x3fabec34	1.3431458
125	0x3f27f6da	0.6561104
126	0x3eb83f23	0.3598567
127	0x3f609847	0.87732357
128	0x3fceafde	1.614742
129	0x3f6ba409	0.9204717
130	0x3f8bfe33	1.093695
131	0x3ef3f60b	0.47648653
132	0x3f0bb5b9	0.5457416
133	0x3f8a124e	1.0786836
134	0x3f44f5b7	0.7693743
135	0x3fab1bb9	1.3367835
136	0x3f731b3a	0.9496342
137	0x3f234ec4	0.6379206
138	0x3f1e6df2	0.61886513
139	0x3fec2dca	1.8451474
140	0x3f685ac6	0.9076351
141	0x3f2aaefe	0.66673267
142	0x3f6dcb64	0.92888474
143	0x3ff428a6	1.9074905
144	0x3ed0e482	0.40799338
145	0x3f5fa3b2	0.87359154
146	0x3f327c97	0.6972136
147	0x3e69c18c	0.22827739
148	0x3eca83f3	0.39553794
149	0x3f1b847d	0.60749036
150	0x3f8735e1	1.0563318
151	0x3f9d7a96	1.2303035
152	0x3f5fa3aa	0.87359107
153	0x3f911845	1.1335531
154	0x3f9138be	1.1345441
155	0x3e488266	0.19580993
156	0x3faeeb1b	1.3665498
157	0x3f9d0bb2	1.2269194
158	0x3ebc9c99	0.36838225
159	0x3f944719	1.1584197
160	0x3f1b9bbd	0.6078451
161	0x3f599498	0.8499236
162	0x3ec0cbb7	0.37655422
163	0x3fd58342	1.6680682
164	0x3f51ef29	0.82005554
165	0x3f765b28	0.96232843
166	0x3f0862e8	0.5327592
167	0x3eb11697	0.34587547
168	0x3f997c18	1.1990995
169	0x3ef5692d	0.47931805
170	0x3ea83426	0.32852286
171	0x3f98e1ab	1.1943868
172	0x3feb6aab	1.8391927
173	0x3fb37202	1.4019167
174	0x3ee60c44	0.44931233
175	0x3f8883e1	1.0665246
176	0x3fa37cda	1.2772477
177	0x3f8137fa	1.0095208
178	0x3ef0e018	0.4704597
179	0x3f602827	0.8756127
180	0x3f8d2748	1.1027613
181	0x3faa5bc8	1.330926
182	0x3f50b02c	0.81518817
183	0x3f80500a	1.0024426
184	0x3ed23b5d	0.41060916
185	0x3fae43d8	1.3614454
186	0x3f2a311a	0.66481173
187	0x3eb8dcde	0.36106008
188	0x3ffdf86c	1.9841437
189	0x3f0d5ebc	0.5522268
190	0x3fa24d00	1.2679749
191	0x3fa71a22	1.305485
192	0x3fb0bb56	1.380717
193	0x3fa81ecf	1.3134402
194	0x3f6d4948	0.92689943
195	0x3fd35b72	1.6512282
196	0x3f38b2d8	0.72147894
197	0x3fa0c2fc	1.2559505
198	0x3fa8c06d	1.3183724
199	0x3ff495a2	1.9108164
200	0x3f97dbbf	1.1863936
201	0x3f01e270	0.5073614
202	0x3fb8f293	1.4449028
203	0x3f9fb8f0	1.2478313
204	0x3e954f81	0.2916222
205	0x3ed118c2	0.408392
206	0x3f92f3f3	1.1480697
207	0x3ecd3e46	0.40086573
208	0x3f691fc5	0.910641
209	0x3fb397fa	1.4030755
210	0x3fdb9562	1.7154963
211	0x3f1e4689	0.6182638
212	0x3f1d05ff	0.61337274
213	0x3edb048c	0.42776906
214	0x3ea787d8	0.32720828
215	0x3fb6af3e	1.427223
216	0x3f6f6958	0.93520117
217	0x3fbbb379	1.4664146
218	0x3f9fcca8	1.2484331
219	0x3f1204e7	0.5703873
220	0x3fb3e55d	1.4054371
221	0x3ec7cc2b	0.39022955
222	0x3f4eb113	0.80738944
223	0x3f6e91d5	0.9319127
224	0x3f6df98c	0.92958903
225	0x3fdf5fc1	1.7451097
226	0x3f6b9b43	0.92033786
227	0x3f55234b	0.8325698
228	0x3f6912dd	0.9104441
229	0x3eeac0db	0.45850262
230	0x3f5c49c5	0.86050063
231	0x3fa65389	1.2994243
232	0x3fd38392	1.6524527
233	0x3ee2c008	0.44287133
234	0x3e847da9	0.2587712
235	0x3f85db56	1.0457561
236	0x3f97f311	1.1871053
237	0x3f580670	0.8438482
238	0x3fc2a51b	1.5206636
239	0x3f3bd8c1	0.73377615
240	0x3fbff1d2	1.4995673
241	0x3e9704db	0.29495892
242	0x3ed6e6b7	0.41972896
243	0x3ed39f34	0.413324
244	0x3f8e4577	1.1114949
245	0x3f9a6d75	1.2064654
246	0x3f1b3b1e	0.6063708
247	0x3f8f5727	1.1198472
248	0x3e6ca66f	0.23110364
249	0x3f2b8731	0.6700316
250	0x3f0f4008	0.5595708
251	0x3f1270c8	0.5720334
252	0x3f36f294	0.71463895
253	0x3fe0056b	1.7501653
254	0x3f0d3463	0.5515806
255	0x3f9c7b6a	1.2225163

ln1.bias f4 [400]
0	0xbdd5a674	-0.10432139
1	0xbf415efa	-0.7553555
2	0xbf016b9e	-0.50554836
3	0xbf249513	-0.6428997
4	0xbedb3e93	-0.42821178
5	0xbe800445	-0.25003257
6	0xbe87c0a3	-0.26514158
7	0xbed68a9e	-0.41902632
8	0xbdc44ba0	-0.09584737
9	0xbe9d664f	-0.30742118
10	0xbe9887d4	-0.2979113
11	0xbf145d81	-0.57955176
12	0xbed2ab9f	-0.41146562
13	0xbf1a3276	-0.6023325
14	0x3e532b84	0.20622069
15	0xbcae0c9f	-0.021246253
16	0xbe9bee22	-0.30455118
17	0xbf2e7b37	-0.6815676
18	0xbeaa9715	-0.3331839
19	0xbce7158a	-0.028208513
20	0xbf30cfcb	-0.69067067
21	0xbe82aa1b	-0.25520405
22	0xbf27786f	-0.6541814
23	0xbe045aae	-0.12925217
24	0xbdef005b	-0.1166999
25	0xbdb7fe30	-0.08984029
26	0xbc71263c	-0.014718588
27	0xbf173eb4	-0.5908005
28	0xbf3a74a3	-0.72834224
29	0xbe4f27b3	-0.20229988
30	0xbee4a27d	-0.4465522
31	0xbe8a0cdd	-0.2696294
32	0xbdde9c4a	-0.108696535
33	0xbf0ae7cf	-0.5425996
34	0xbef18d59	-0.47178152
35	0xbea0c301	-0.31398776
36	0xbe144d92	-0.14482716
37	0xbe8626f4	-0.26201594
38	0xbe508569	-0.20363392
39	0xbf1ee135	-0.6206239
40	0xbeb6566c	-0.3561281
41	0xbd633b96	-0.055476747
42	0xbf197920	-0.5995045
43	0xbe217ccc	-0.15770262
44	0xbef1635e	-0.47146124
45	0xbe96d299	-0.29457548
46	0xbe289d8c	-0.1646635
47	0xbd3318a0	-0.043724656
48	0xbee53046	-0.44763392
49	0xbda37cd9	-0.07982797
50	0xbe73ca10	-0.2380755
51	0xbe36e5fe	-0.17861173
52	0xbd89460a	-0.06702812
53	0xbe983ef9	-0.29735544
54	0xbe672630	-0.22573161
55	0xbdc13750	-0.09434378
56	0xbf467481	-0.7752152
57	0xbf45921f	-0.7717609
58	0xbf243a78	-0.64151716
59	0xbf06af41	-0.52611166
60	0xbf1a3ac2	-0.6024591
61	0xbed6ebd9	-0.41976812
62	0xbe6fd19e	-0.23419806
63	0xbdd2ce8d	-0.10293303
64	0xbf31353a	-0.6922184
65	0x3d6b7795	0.05748709
66	0xbd7057ad	-0.058677364
67	0xbef5256a	-0.47880107
68	0xbe492123	-0.19641547
69	0xbef84969	-0.48493508
70	0xbd8cc2b2	-0.06873073
71	0xbe0eb40a	-0.13935867
72	0xbf06a3a1	-0.5259343
73	0xbeedec90	-0.46469545
74	0xbe28061a	-0.16408578
75	0xbe3bc918	-0.1833843
76	0xbe17f9fa	-0.14841452
77	0xbe6d816d	-0.23193903
78	0xbf280b8e	-0.6564263
79	0xbcf1a0f3	-0.029495692
80	0xbea24628	-0.3169415
81	0xbf120f18	-0.5705428
82	0xbf44eb3d	-0.76921445
83	0xbe68d0f7	-0.22735964
84	0xbdb7dc59	-0.08977575
85	0xbe42ddb9	-0.19029893
86	0xbebeb24f	-0.37245414
87	0xbf038998	-0.51381826
88	0xbe377211	-0.17914607
89	0xbed49276	-0.4151799
90	0xbf26354b	-0.6492507
91	0xbeab9d6e	-0.33518547
92	0xbdb75305	-0.089513816
93	0xbe86791c	-0.26264274
94	0xbe2e8786	-0.17043886
95	0xbe9c0ea5	-0.30479923
96	0xbd1bf803	-0.03807832
97	0xbf15f8e5	-0.5858291
98	0xbf254db0	-0.64571667
99	0xbf2808b7	-0.656383
100	0xbf1d43a5	-0.6143134
101	0xbe4862c9	-0.19568934
102	0xbf1ab8ff	-0.6043853
103	0xbf21e7cf	-0.63244337
104	0xbeddfc57	-0.43356583
105	0xbe3b07b7	-0.18264662
106	0xbed4493e	-0.4146213
107	0xbe914fed	-0.2838129
108	0xbe8f0dab	-0.27940115
109	0xbee0d512	-0.4391256
110	0xbea27812	-0.3173223
111	0xbf09f65f	-0.5389156
112	0xbed60f3d	-0.418085
113	0xbf25a6f5	-0.6470788
114	0xbe5d55d0	-0.21614766
115	0xbf2dd896	-0.6790861
116	0xbec95718	-0.3932426
117	0xbd865d1a	-0.065607265
118	0xbd9b00e1	-0.07568527
119	0xbdb2f905	-0.08738903
120	0xbf04877d	-0.5176924
121	0x37de28e2	2.64835e-05
122	0xbf1d308b	-0.61402196
123	0xbe81c381	-0.2534447
124	0xbd6e5c09	-0.05819324
125	0xbea0b908	-0.31391168
126	0xbf2b9014	-0.6701672
127	0xbea16194	-0.3151976
128	0xbd165d5b	-0.036710124
129	0xbeb69e88	-0.35667825
130	0xbe5e214a	-0.21692386
131	0xbef5e794	-0.48028243
132	0xbeeb36d2	-0.45940262
133	0xbe2e00fd	-0.16992564
134	0xbe8065a6	-0.25077552
135	0xbe26bdff	-0.16283415
136	0xbeac2186	-0.33619326
137	0xbeec0bc1	-0.46102718
138	0xbeec6585	-0.46171203
139	0x3e1401d2	0.1445382
140	0xbe4c723f	-0.19965456
141	0xbf1fa6af	-0.62363714
142	0xbe2f7886	-0.1713582
143	0x3ce9208f	0.028457908
144	0xbf196911	-0.59925944
145	0xbe803c4a	-0.25045997
146	0xbed04e22	-0.4068461
147	0xbf1aa8e5	-0.6041396
148	0xbf35df0a	-0.71043456
149	0xbee6a4cd	-0.45047608
150	0xbd91c540	-0.071177006
151	0xbe1de577	-0.15419565
152	0xbe642739	-0.22280587
153	0xbdd29cb8	-0.10283798
154	0xbe553612	-0.20821407
155	0xbf2cc318	-0.6748519
156	0xbe32701a	-0.17425576
157	0xbe414f0a	-0.18877807
158	0xbf1d8e2b	-0.61545056
159	0xbdf8a2cd	-0.12140427
160	0xbebc6af5	-0.36800352
161	0xbed8e252	-0.4236017
162	0xbf05418e	-0.52053154
163	0xbda56761	-0.080763586
164	0xbf058204	-0.52151513
165	0xbe26ea8a	-0.16300407
166	0xbed38036	-0.41308755
167	0xbf1cd4c5	-0.6126216
168	0xbe1c8bab	-0.15287654
169	0xbebe78cb	-0.37201533
170	0xbf284ab5	-0.65738994
171	0xbe8cb80e	-0.27484173
172	0x3d67b882	0.056572445
173	0xbd23922c	-0.039934322
174	0xbf03c388	-0.5147023
175	0xbea119e2	-0.3146506
176	0xbe7763a5	-0.24159105
177	0xbebb6941	-0.3660374
178	0xbeff5b67	-0.49874422
179	0xbe59b8bb	-0.21261875
180	0xbe207d62	-0.1567283
181	0xbdb2d707	-0.087324195
182	0xbe8bb7f9	-0.27288797
183	0x3d9d7cb3	0.076898
184	0xbf2ff765	-0.6873687
185	0xbeb77da9	-0.3583806
186	0xbef6a761	-0.48174575
187	0xbf1e848b	-0.61920995
188	0xbe16761c	-0.14693493
189	0xbef41541	-0.47672465
190	0xbbbf1571	-0.0058314134
191	0xbe599567	-0.21248399
192	0xbe079622	-0.13240865
193	0xbe8e7170	-0.2782092
194	0xbe796e8a	-0.24358574
195	0xbe6bba22	-0.23020223
196	0xbef9ff9f	-0.48827836
197	0xbdb09355	-0.08621851
198	0x3da63f2e	0.08117519
199	0x3d3409ab	0.043954533
200	0xbe2b82f0	-0.16749167
201	0xbf1898f4	-0.5960839
202	0x3dad504b	0.0846258
203	0xbe72c7cf	-0.23709033
204	0xbf38a80c	-0.7213142
205	0xbf340d44	-0.7033274
206	0xbe96ac92	-0.29428536
207	0xbf0e3994	-0.5555661
208	0xbedfc204	-0.4370271
209	0xbda1b256	-0.07895343
210	0xbe239a74	-0.15976888
211	0xbec5992e	-0.3859343
212	0xbee7226c	-0.4514345
213	0xbf31634c	-0.6929214
214	0xbf266291	-0.6499415
215	0xbe6031e2	-0.21894029
216	0xbda766dd	-0.081739165
217	0xbdb79465	-0.08963851
218	0xbe532b18	-0.20621908
219	0xbee1b2b3	-0.4408165
220	0xbc1ac8be	-0.009447275
221	0xbf38422a	-0.7197596
222	0xbe8b910c	-0.272591
223	0xbd97f590	-0.07419884
224	0xbde771b5	-0.11300985
225	0xbcf2a297	-0.029618545
226	0xbe044487	-0.12916766
227	0xbed4c0e4	-0.41553414
228	0x3c3a6711	0.011377112
229	0xbef5f9ce	-0.48042148
230	0xbe09c3e8	-0.13453639
231	0xbe11bc7c	-0.14232057
232	0x3d6d684d	0.057960797
233	0xbedd0730	-0.43169546
234	0xbf0f9d13	-0.5609905
235	0xbe61bd1b	-0.22044794
236	0xbdef1f31	-0.11675871
237	0xbe6b10f2	-0.22955683
238	0xbca7e81f	-0.020496426
239	0xbea6d2a9	-0.32582596
240	0xbdcbe619	-0.09955997
241	0xbf3abde7	-0.7294602
242	0xbf0dda9a	-0.55411685
243	0xbf0c0b09	-0.5470434
244	0xbe838884	-0.2569009
245	0x3beb5721	0.0071820174
246	0xbf163946	-0.5868114
247	0xbd50ea9f	-0.051005002
248	0xbf2c8dae	-0.67403686
249	0xbe99cf7d	-0.30041113
250	0xbec5b419	-0.38613966
251	0xbf04142a	-0.5159327
252	0xbe95becf	-0.29247138
253	0xbe59d026	-0.21270809
254	0xbf1f4cfa	-0.6222683
255	0xbe44d21f	-0.1922078

fc2.weight f4 [300, 400]
0	0xbe7c931d	-0.24665494
1	0x3d87e9dd	0.06636403
2	0x3dded9dd	0.10881398
3	0xbcba13c0	-0.022714496
4	0xbb2a4fe6	-0.0025987565
5	0xbd471d8a	-0.048612155
6	0x3e8e5a84	0.27803433
7	0x3e2d6bfb	0.16935723
8	0xbeb06376	-0.34450883
9	0xbe5f4a04	-0.21805578
10	0x3d05f7fa	0.032707192
11	0x3e9dfea1	0.3085833
12	0x3e114e20	0.14189959
13	0x3b3d1fef	0.0028858145
14	0xbe41bcbf	-0.18919657
15	0xbee9ce07	-0.45665
16	0x3beaf6c8	0.007170532
17	0xbd55ba47	-0.0521796
18	0x3d02e98c	0.03196101
19	0xbe2e070c	-0.16994876
20	0x3bf3c0af	0.007438741
21	0x3e9a3d56	0.3012492
22	0xbe05847a	-0.13038817
23	0xbe7a0e4a	-0.24419513
24	0xbe00210a	-0.12512603
25	0xbcaa2eb8	-0.02077423
26	0xbe556e43	-0.20842843
27	0xbdd03121	-0.101656206
28	0xbd7137c2	-0.058891065
29	0x3e8ca69d	0.27470866
30	0x3de6f4a9	0.11277134
31	0xbbac3e58	-0.0052564554
32	0x3d6b78e3	0.057488333
33	0xbd8ef365	-0.069800176
34	0x3d0b4501	0.034001354
35	0xbf491d28	-0.78560114
36	0xbe973696	-0.29533833
37	0xbd8128cf	-0.06306612
38	0x3e600dff	0.21880339
39	0xbd329cba	-0.043606497
40	0xbdc37dcb	-0.095454775
41	0xbf02ea6c	-0.5113895
42	0xbd3d441e	-0.04620754
43	0x3e91cfa0	0.28478718
44	0x3e8998bb	0.26874337
45	0x3cf07203	0.02935124
46	0xbea5d168	-0.32386327
47	0xbef2c72c	-0.4741758
48	0xbd9929c2	-0.07478668
49	0x3f229ada	0.63517535
50	0xbd2d2633	-0.042272758
51	0xbde887d9	-0.11354036
52	0xbee59013	-0.44836482
53	0x3f2e1db6	0.68014085
54	0xbf07b8ef	-0.5301656
55	0x3d62202e	0.05520647
56	0x3b6463ab	0.0034849446
57	0x3d7b0738	0.06128618
58	0xbda97831	-0.08274878
59	0x3e51105a	0.20416394
60	0xbda5ff5b	-0.08105346
61	0xbd0daa06	-0.034585975
62	0xbca30f7c	-0.019904844
63	0xbe8664d3	-0.26248798
64	0xbca7e9d2	-0.020497236
65	0xbeaecb96	-0.341397
66	0xbf768e32	-0.9631072
67	0x3c46269b	0.012094165
68	0x3db70625	0.08936719
69	0xbb34c9b6	-0.002758605
70	0xbed64472	-0.41849095
71	0xbe178df1	-0.1480024
72	0x3e74187d	0.23837467
73	0x3d3e01bb	0.04638837
74	0x3e634dbc	0.22197622
75	0x3eb61ca2	0.3556872
76	0xbf88b130	-1.0679073
77	0xbee53df4	-0.4477383
78	0xbe05e49e	-0.13075492
79	0x3c4c0df0	0.012454495
80	0x3d9bc42f	0.076057784
81	0x3f08d3ad	0.5344799
82	0x3db91f60	0.090391874
83	0xbe12243a	-0.14271632
84	0xbdc9d973	-0.09855928
85	0xbe36e60a	-0.1786119
86	0xbd97cda3	-0.07412269
87	0x3d635a5d	0.0555061
88	0xbecabcb0	-0.39597082
89	0x3e246a93	0.1605628
90	0x3e675210	0.22589898
91	0x3e338712	0.17531994
92	0xbcf11f94	-0.029434003
93	0x3ef038cb	0.4691833
94	0x3e735ef1	0.23766686
95	0xbef5fbd3	-0.4804369
96	0xbd966040	-0.07342577
97	0xbcd9720c	-0.02654364
98	0xbcdf6027	-0.027267529
99	0x3caff333	0.021478271
100	0x3e013fa6	0.12621936
101	0xbdc5e10c	-0.09662065
102	0x3d20a911	0.039223734
103	0xbd4454f8	-0.047932595
104	0x3dcca7c4	0.09992936
105	0x3eb19bda	0.34689218
106	0xbda4af95	-0.08041302
107	0xbded84c6	-0.1159759
108	0xbe52edf4	-0.20598584
109	0x3c68d265	0.014210318
110	0xbc5563f4	-0.013024319
111	0xbf429611	-0.76010233
112	0xbda5d67b	-0.080975495
113	0x3d4bf1cf	0.049791154
114	0x3e2d7bfc	0.16941828
115	0x3e1999f2	0.15000132
116	0x3ee227d0	0.44171
117	0xbf13f17f	-0.5779037
118	0xbedfd29e	-0.43715376
119	0xbea7153f	-0.32633397
120	0x3f28d09d	0.6594332
121	0xbe34a276	-0.17640099
122	0x3c9e74bb	0.01934277
123	0xbf27757a	-0.6541363
124	0xbebc6b93	-0.36800823
125	0x3e0ee12c	0.13953084
126	0xbddb6253	-0.10712113
127	0xbc1e11a2	-0.009647759
128	0xbf17e857	-0.593389
129	0x3ee22fa6	0.44176978
130	0xbd2140c5	-0.03936841
131	0x3d96b23e	0.07358216
132	0xbdd5253d	-0.10407493
133	0xbe785d63	-0.24254374
134	0x3e926fdf	0.28600976
135	0xbee92936	-0.45539254
136	0xbdb5cf73	-0.088774584
137	0xbe4a04b5	-0.19728358
138	0xbd8e2b1c	-0.06941816
139	0xbcb3d217	-0.021950765
140	0x3e8bde3b	0.27317986
141	0x3e80aa68	0.2513001
142	0x3eafb278	0.34315848
143	0x3f7fe309	0.99955803
144	0xbc666d9a	-0.014064217
145	0x3e0ac5f4	0.13552076
146	0xbe2a7eb5	-0.16649897
147	0xbd7d3d3e	-0.061825983
148	0x3c94451f	0.018099366
149	0xbc7a4b0e	-0.0152766835
150	0x3e83a86b	0.2571443
151	0x3f1a31d8	0.60232306
152	0x3e72c578	0.23708141
153	0xbdd12c4d	-0.10213528
154	0x3f02d19e	0.511011
155	0xbd74ec7b	-0.059795838
156	0xbf28d97d	-0.6595686
157	0x3e612e82	0.21990398
158	0xbd3ea9be	-0.046548598
159	0xbeaf50a0	-0.342412
160	0x3dd2279e	0.10261463
161	0xbe1f8332	-0.15577391
162	0xbd78a282	-0.060701855
163	0xbefbf162	-0.49207598
164	0x3c67e9ed	0.014154893
165	0x3ea99058	0.33117938
166	0x3de16cd5	0.11007086
167	0xbe1f5d00	-0.1556282
168	0xbd3fc774	-0.046821073
169	0x3e97bffc	0.2963866
170	0x3c4da939	0.012552553
171	0xbf0b27dc	-0.54357696
172	0xbf2970c5	-0.661877
173	0xbe84365c	-0.25822723
174	0xbd7d6297	-0.0618616
175	0xbc220466	-0.009888744
176	0x3e0f8a3c	0.14017576
177	0x3e7764e5	0.24159582
178	0x3e8e0b88	0.27743173
179	0xbe05911b	-0.13043635
180	0xbe8171bd	-0.25282088
181	0x3f1874de	0.59553325
182	0xbdd40bcd	-0.10353813
183	0xbde4c1ea	-0.11169799
184	0x3e1c8b4e	0.15287516
185	0x3f3f2806	0.74670446
186	0xbe9fea62	-0.31233507
187	0xbd873fa9	-0.06603939
188	0xbf764402	-0.9619752
189	0x3d85fc71	0.0654229
190	0xbe2392a7	-0.15973912
191	0x3f191675	0.5979989
192	0xbd8175e1	-0.06321312
193	0x3fa3158c	1.274095
194	0xbe35032d	-0.17676993
195	0x3f3cc68f	0.73740476
196	0x3e1f1307	0.15534602
197	0xbed38638	-0.41313338
198	0xbea8d68b	-0.32976183
199	0xbf21ee51	-0.63254267
200	0x3d1134ce	0.03545075
201	0x3e515632	0.20443037
202	0xbebd5331	-0.36977533
203	0xbcfad748	-0.030620232
204	0xbdeda5d2	-0.11603893
205	0x3dbf2781	0.09333707
206	0xbeea5c82	-0.45773703
207	0xbd80a6fb	-0.06281849
208	0x3d8526c4	0.065015346
209	0xbed69ba7	-0.41915628
210	0xbf20e60a	-0.6285101
211	0x3ac74eb7	0.0015205954
212	0x3d902138	0.07037586
213	0xbd419812	-0.047264166
214	0xbc54a2f0	-0.0129783
215	0xbed151a1	-0.4088259
216	0x3dabb9d0	0.0838505
217	0xbef04c78	-0.4693334
218	0x3f0f5360	0.55986595
219	0x3dda3e86	0.10656457
220	0xbe4681d4	-0.19385463
221	0x3e3d4d77	0.18486582
222	0x3da52d52	0.08065285
223	0x3ee7a9eb	0.45246825
224	0xbe5bebf7	-0.21476732
225	0xbf39459c	-0.7237184
226	0xbe0877c6	-0.1332694
227	0x3eb0d0be	0.34534258
228	0xbd72927a	-0.059221722
229	0x3b825d2c	0.003978392
230	0x3d0e52b5	0.034746844
231	0xbe3835f2	-0.17989329
232	0xbdda09fe	-0.10646437
233	0x3ba1447f	0.0049214954
234	0xbcc9dbaf	-0.024640886
235	0xbe7d7c71	-0.24754502
236	0xbe84c948	-0.25934815
237	0xbe87f144	-0.2655126
238	0xbe22f434	-0.15913469
239	0xbda1a90c	-0.07893571
240	0x3e49efab	0.19720332
241	0xbe239579	-0.15974988
242	0xbe1f0e58	-0.15532815
243	0xbcef732b	-0.029229721
244	0xbece6e98	-0.4031875
245	0xbe7564b9	-0.23964204
246	0x3ec2a341	0.38015178
247	0xbdf6d656	-0.120526
248	0x3ca8ff18	0.02062945
249	0x3e5a2467	0.21302949
250	0xbd38ba3c	-0.045099482
251	0xbd4aadf3	-0.049482297
252	0x3dd7cf30	0.10537565
253	0xbf859e19	-1.0438873
254	0xbd9c3daf	-0.07628953
255	0xbe2dcd6a	-0.1697289

fc2.bias f4 [300]
0	0x3de5d6d7	0.11222618
1	0xbde1c0ac	-0.11023077
2	0x3ce2ac65	0.027670095
3	0x3c1969e6	0.009363627
4	0x3d12ba00	0.035821915
5	0x3dce999f	0.10087895
6	0x3e87130b	0.26381716
7	0x3dbac899	0.09120292
8	0x3c26f1dd	0.010189501
9	0xbe39d265	-0.18146665
10	0xbe907163	-0.28211507
11	0xbc811433	-0.015756702
12	0xbd9f9959	-0.077929206
13	0xbe4478db	-0.19186728
14	0x3e40e9f0	0.1883924
15	0x3d316d37	0.043317046
16	0xbebbdfa6	-0.36694068
17	0xbd615e7a	-0.05502174
18	0x3e345f73	0.17614536
19	0x3e3ecfff	0.18634032
20	0xbd6eff7e	-0.058349125
21	0x3e0ba7a3	0.13638167
22	0x3e84f2ba	0.25966436
23	0xbedc3b1a	-0.4301384
24	0x3e3d5021	0.18487598
25	0xbe9c9cfc	-0.3058852
26	0x3e89b57f	0.26896283
27	0x3e86712e	0.26258224
28	0xbba4a66c	-0.005024722
29	0x3d84fec2	0.06493904
30	0xbd8e803a	-0.06958051
31	0x3d2a3711	0.04155642
32	0x3e2720b5	0.1632107
33	0x3c57178e	0.0131281745
34	0x3e344a38	0.17606437
35	0x3ddd8822	0.10816981
36	0x3e016674	0.12636739
37	0x3caf3ad8	0.021390364
38	0x3e1fa93d	0.15591903
39	0xbe05d643	-0.13070016
40	0x3db6e140	0.08929682
41	0xbe042c28	-0.1290747
42	0x3dde9f8f	0.10870277
43	0x3e2d996c	0.16953057
44	0xbdeb367b	-0.11485001
45	0xbd0a4de8	-0.033765703
46	0x3e72e6d4	0.23720866
47	0x3dbf9170	0.09353912
48	0xbca04c4f	-0.019567637
49	0xbb8a75f6	-0.004225488
50	0x3e7906c7	0.24318992
51	0x3e7ecfeb	0.24884002
52	0x3da7251c	0.08161375
53	0x3ea8b046	0.32946986
54	0xbdd64217	-0.104618244
55	0x3d9b9fde	0.075988516
56	0xbb0122df	-0.0019704623
57	0xbeaf79c6	-0.34272593
58	0xbc5f4699	-0.013627672
59	0x3e82c05b	0.2553738
60	0x3d7d77ef	0.061881956
61	0x3e8836ef	0.2660441
62	0xbe0e78e9	-0.13913311
63	0x3e6b9253	0.23005037
64	0x3c445b37	0.011984638
65	0xbd0a0507	-0.0336962
66	0x3b8c1bf2	0.0042757923
67	0x3e15e285	0.14637192
68	0x3c7e3072	0.01551448
69	0xbd811fb7	-0.06304877
70	0xbe04e205	-0.12976845
71	0x3e161ceb	0.14659469
72	0x3da4f5e7	0.08054715
73	0xbe50418d	-0.20337506
74	0xbbf8062e	-0.007569096
75	0xbd042409	-0.03226093
76	0x3e821ba9	0.25411728
77	0xbce1ec06	-0.027578365
78	0x3d86d3e4	0.06583384
79	0x3e76c1ca	0.24097362
80	0x3eaa9f11	0.33324483
81	0x3df60aa2	0.12013747
82	0x3e6f1c37	0.23350607
83	0x3e96f4bb	0.2948359
84	0x3e8d8d0f	0.27646682
85	0xbdb678fd	-0.089097954
86	0x3d853bc4	0.0650554
87	0xbe909701	-0.28240207
88	0xbe9de242	-0.30836684
89	0xbe02653f	-0.12733935
90	0xbe9bba26	-0.30415457
91	0x3df06dd0	0.11739695
92	0x3e06d1c5	0.13165958
93	0x3e1492fe	0.14509198
94	0xbea84618	-0.32865977
95	0xbc552b35	-0.01301079
96	0x3e88159f	0.26578996
97	0x3ea6f371	0.32607606
98	0x3d0f2fc1	0.03495765
99	0xbdebdd0f	-0.11516773
100	0x3dd03015	0.10165421
101	0x3dd07bf8	0.10179895
102	0x3cb3058b	0.021853229
103	0xbd585d5f	-0.05282342
104	0x3e23c18b	0.159918
105	0xbd3ee9ac	-0.046609566
106	0x3e09698b	0.13419168
107	0xbe06bebf	-0.13158701
108	0x3d7b5b28	0.06136623
109	0x3e0d754f	0.13814281
110	0x3e8fc1ea	0.28077632
111	0x3d450ac6	0.048105977
112	0x3d05c835	0.032661635
113	0xbd779214	-0.060442045
114	0xbdf6ae27	-0.12044936
115	0xbd9997a5	-0.07499627
116	0xbe15e3f7	-0.14637743
117	0x3de74bfd	0.112937905
118	0xbddb67b1	-0.10713137
119	0xbd430747	-0.047614362
120	0xbe2d5dca	-0.16930309
121	0x3de63e2f	0.11242329
122	0x3e980c10	0.29696703
123	0xbe32b22f	-0.17450784
124	0xbdd8a54d	-0.105784036
125	0xbe841d99	-0.2580383
126	0x3e5abc37	0.21360861
127	0x3db92c5f	0.09041666
128	0xbe95a801	-0.2922974
129	0x3d86c944	0.06581357
130	0xbea259af	-0.31709048
131	0xbe3c78e6	-0.18405494
132	0x3d870082	0.06591894
133	0xbd96ce11	-0.07363523
134	0x3e029f05	0.12755974
135	0xbdc58ed7	-0.09646385
136	0xbe6e6f4e	-0.23284647
137	0x3d024c67	0.031811144
138	0x3a9085ec	0.001102624
139	0xbe51ac7f	-0.20475958
140	0xbdc4444c	-0.09583339
141	0xbe13970e	-0.14413092
142	0x3dc0b7ff	0.094100945
143	0xbe23dce4	-0.16002232
144	0xbe0fc44e	-0.14039728
145	0x3d82ffb4	0.06396428
146	0xbe7482a1	-0.23877956
147	0xbe9f8f1d	-0.31163874
148	0x3e74fa15	0.23923524
149	0xbe14a503	-0.14516072
150	0x3e6c7c46	0.23094282
151	0x3e5e8513	0.21730451
152	0xbd6b27a6	-0.05741086
153	0x3e8b3080	0.2718544
154	0xbdf343ec	-0.118781894
155	0x3e45c216	0.19312319
156	0x3ddb2e19	0.10702152
157	0x3e63bef8	0.22240818
158	0xbeaa0291	-0.33205083
159	0xbe250172	-0.16113833
160	0xbebb9cd8	-0.366431
161	0x3e6204ad	0.22072096
162	0x3d46a635	0.04849835
163	0xbdee3b0c	-0.11632356
164	0xbe919377	-0.2843282
165	0x3e2d9fb3	0.16955452
166	0xbe63731f	-0.22211884
167	0xbeaf8337	-0.34279796
168	0x3e91a023	0.28442487
169	0x3e8d41d1	0.27589276
170	0x3e87dabd	0.26534072
171	0x3e871420	0.26382542
172	0xbdc66394	-0.09686962
173	0xbdb0f8b7	-0.086411886
174	0xbe12e5b3	-0.14345436
175	0xbd1a5d85	-0.037686843
176	0xbc863ed6	-0.016387384
177	0x3d8d1129	0.06888039
178	0xbe5da2f6	-0.21644196
179	0xbd81f3cc	-0.06345329
180	0x3df7bef4	0.12096968
181	0xbc3f5321	-0.011677534
182	0x3e57e745	0.21084316
183	0x3e34e3e8	0.17665064
184	0x3e02188d	0.12704678
185	0x3e222740	0.15835285
186	0x3de64d41	0.11245204
187	0xbe3d9939	-0.18515481
188	0x3d11619a	0.03549347
189	0xbd2772c2	-0.040880926
190	0x3d895a16	0.06706636
191	0xbde7336c	-0.11289105
192	0x3e3e7a8d	0.18601437
193	0x3e34bd50	0.17650342
194	0x3db8ddba	0.09026666
195	0xbccf9ba0	-0.025342762
196	0xbd44ec78	-0.048077077
197	0xbedfd7c2	-0.43719298
198	0x3dd366c5	0.10322336
199	0xbce5f364	-0.02807016
200	0x3c8063f0	0.015672654
201	0x3d9bb60c	0.07603082
202	0x3bb24afc	0.0054410677
203	0x3e9c31fe	0.3050689
204	0x3b3b4c8e	0.0028579566
205	0x3d89d132	0.06729354
206	0x3e532092	0.20617893
207	0x3e81e60b	0.2537082
208	0x3e33c8f9	0.17557134
209	0xbe962e6a	-0.29332286
210	0xbe6827f5	-0.22671492
211	0x3e1050d9	0.14093341
212	0xbd429167	-0.047501948
213	0xbd3e267b	-0.046423417
214	0x3ce44a13	0.027867353
215	0x3e55a634	0.20864183
216	0xbd688594	-0.056768015
217	0x3dcb7308	0.0993405
218	0xbe1295ca	-0.14314952
219	0x3dc110b3	0.09427013
220	0xbd84f1fb	-0.064914666
221	0x3d709929	0.058739815
222	0x3d965a1e	0.07341407
223	0x3c1fb164	0.009746883
224	0x3dcd7e76	0.10033886
225	0x3e84116a	0.25794536
226	0x3cd93b73	0.026517605
227	0x3eb4d9f4	0.35322535
228	0xbda9bf84	-0.08288482
229	0xbdfc99ce	-0.123340234
230	0x3e2eb555	0.1706136
231	0xbe3eb2eb	-0.1862294
232	0x3ddbd0ab	0.1073316
233	0x3d8b2e98	0.067959964
234	0xbe77e6ad	-0.2420909
235	0xbe46b5f2	-0.19405344
236	0xbead32b1	-0.33827737
237	0x3e07f188	0.1327573
238	0xbe2a45f7	-0.16628252
239	0xbe00aad1	-0.12565161
240	0xbbedd530	-0.00725808
241	0x3e2eba08	0.17063153
242	0x3ea15f2e	0.3151793
243	0x3dc3e58f	0.09565269
244	0x3e5ea704	0.21743399
245	0x3ddb7ddc	0.10717365
246	0x3e614915	0.22000535
247	0x3d717779	0.05895183
248	0x3dfa4aef	0.12221324
249	0x3e5d8807	0.21633922
250	0x3e3dbac5	0.18528278
251	0xbe90065f	-0.2812986
252	0xbbea1e45	-0.0071447217
253	0x3d1ec9e6	0.038766764
254	0x3e561637	0.20906912
255	0x3e06283f	0.1310129

ln2.weight f4 [300]
0	0x3fc66aa3	1.5501293
1	0x3f86726c	1.0503669
2	0x3ffbe507	1.9679269
3	0x3ff723de	1.9307821
4	0x3df41ac9	0.11919171
5	0x4013888c	2.3052092
6	0x3fe1d9f9	1.7644645
7	0x3ff90da9	1.9457294
8	0x4026f990	2.608982
9	0x3f090e3e	0.53537357
10	0x40479aa2	3.118813
11	0xbb333af3	-0.002734837
12	0x404e57fa	3.2241197
13	0x404bbbd4	3.183339
14	0x3f9d91e7	1.2310151
15	0x3fe87ffc	1.8164058
16	0x40774c85	3.8640454
17	0x3fef070e	1.8674028
18	0x4000a2c9	2.0099356
19	0x3f8c7c5e	1.0975454
20	0x3f969735	1.1764895
21	0x3fc087bb	1.5041422
22	0x3fd9389a	1.6970398
23	0x40572bde	3.3620524
24	0x3eacb836	0.33734292
25	0x405baf44	3.4325724
26	0x3fa073a3	1.253529
27	0x3fca1c12	1.5789816
28	0xbed1f507	-0.41007254
29	0x3ecdd13d	0.401987
30	0x3fe7846b	1.8087286
31	0xbf16faba	-0.5897633
32	0x3fc4effd	1.5385739
33	0x4004abd7	2.0729883
34	0x3fda1c3f	1.703987
35	0x3d8fc711	0.07020391
36	0x3ff42dfa	1.9076531
37	0x40137e5b	2.3045871
38	0x3fa65b9a	1.2996705
39	0x401258cd	2.28667
40	0x3ff5209d	1.9150578
41	0x405afb00	3.4215698
42	0x3fd0508a	1.6274579
43	0x3fccfda9	1.6014911
44	0x3f773fd1	0.9658175
45	0x4006e103	2.1074836
46	0x3fea01cb	1.8281797
47	0xbf95b33f	-1.1695327
48	0x3fbc5f89	1.4716655
49	0x40484af7	3.1295755
50	0x4000cd8d	2.0125458
51	0x3fe212fb	1.7662042
52	0x3f9d62f6	1.2295825
53	0x3fbdcd04	1.4828191
54	0x3fe748ba	1.8069069
55	0x3f8bafa9	1.0912982
56	0x4043f652	3.0619092
57	0x404aefa0	3.1708755
58	0x4034d3b9	2.8254225
59	0x3ff3f824	1.9060102
60	0xbe92037e	-0.2851829
61	0x3fd4712e	1.659704
62	0x3ecc11c9	0.3985732
63	0x3fea8843	1.8322834
64	0xbe8c260b	-0.27372774
65	0x4034385c	2.81594
66	0x402ab3d0	2.667225
67	0xbf182b52	-0.594411
68	0x402f5274	2.7394075
69	0x401d5511	2.458317
70	0x40587d62	3.3826528
71	0x3fd03c6f	1.6268443
72	0x3cc2bbf7	0.02377127
73	0x3fc4cf1e	1.5375707
74	0x4034ae1d	2.823127
75	0x3f89ce65	1.0766112
76	0x3fb88a1a	1.4417145
77	0x3fb489e5	1.4104582
78	0x3ef45590	0.4772153
79	0x3fcc23f4	1.5948472
80	0x3fbf25c5	1.4933401
81	0xbf06c033	-0.5263702
82	0x3f8703a5	1.0547987
83	0x3fc4df60	1.5380669
84	0x3fea8237	1.8320988
85	0x40206a5f	2.5064924
86	0x3e6c6b66	0.23087844
87	0x404e42d1	3.2228281
88	0x4002e49b	2.045203
89	0x40231e00	2.548706
90	0x4033915f	2.8057477
91	0x3f0b7a9c	0.5448396
92	0x3fecda68	1.8504152
93	0x3ff149fb	1.8850702
94	0x405658be	3.3491664
95	0x3fd050ed	1.6274697
96	0x3fce1958	1.6101484
97	0x3fe8b59d	1.8180424
98	0x3fb538dd	1.4157978
99	0x3f711cb8	0.94184446
100	0x3fe21de3	1.7665371
101	0xbc45ea8c	-0.012079846
102	0x3fda5773	1.7057937
103	0x3fbefedf	1.492153
104	0x3fdfe600	1.7492065
105	0x4054e82a	3.3266702
106	0x4012a817	2.2915094
107	0x3fcf373a	1.6188729
108	0x3fe86598	1.8156004
109	0x400922ba	2.1427445
110	0x3fd408fe	1.6565244
111	0xbdfa9e07	-0.122371726
112	0x3fe75e6e	1.8075693
113	0x404b761b	3.1790836
114	0x3fe7cde7	1.8109711
115	0x3ea27464	0.31729424
116	0x402df747	2.7182176
117	0x3f97b20f	1.1851214
118	0x3fa6c0f7	1.3027638
119	0x3fa725db	1.3058428
120	0x3fe0e37a	1.756942
121	0x3fbd30c2	1.4780505
122	0x3fd493cd	1.6607605
123	0x401e49e1	2.4732592
124	0x3f9d219b	1.227588
125	0x406c1db2	3.6893125
126	0x3e32e27e	0.17469212
127	0xbf73fca5	-0.9530738
128	0x3fd33d1a	1.6503022
129	0x3fe9df71	1.8271314
130	0x4029f93e	2.6558375
131	0x3e8c4cad	0.2740225
132	0x4033a265	2.8067868
133	0x404bced3	3.1844985
134	0xbefacac6	-0.4898283
135	0x3fa173c7	1.2613457
136	0x40487df2	3.132687
137	0x401bbe40	2.433487
138	0x400760c2	2.1152806
139	0x3fba404f	1.4550875
140	0x3f24ada3	0.6432745
141	0x3f10667d	0.56406385
142	0x40010778	2.0160809
143	0x3fb1bba4	1.3885388
144	0x3ed4eeab	0.4158834
145	0x400492c3	2.0714576
146	0x4020e059	2.513693
147	0x3ff39f5e	1.903301
148	0x3fd4a0e9	1.6611606
149	0x404d439b	3.2072513
150	0x3fe726bf	1.8058699
151	0x3fafa772	1.3722975
152	0x4046c13d	3.1055443
153	0x3fdb2387	1.7120217
154	0x4045e6ae	3.0922046
155	0x3fe81062	1.813
156	0x3fdb56dc	1.7135882
157	0x3fd6f448	1.6793299
158	0x4048f11e	3.1397166
159	0x3f885269	1.065015
160	0x4062a2f0	3.541195
161	0x3fb8e2d9	1.4444228
162	0x3fe78ebe	1.8090436
163	0x401dd530	2.466137
164	0x40487b17	3.1325128
165	0x3fb86074	1.4404435
166	0x3faca7f6	1.3488758
167	0x403288ae	2.7895923
168	0x3fcf8cf0	1.6214886
169	0x3fdc6577	1.7218465
170	0x3fcc4288	1.5957804
171	0x3fd8069c	1.6877017
172	0x40480b46	3.125688
173	0x4050207a	3.2519822
174	0x3fd4f06a	1.6635869
175	0x404bbd1b	3.183417
176	0x4049c4b4	3.1526308
177	0x40052057	2.0800989
178	0x3f942ddf	1.1576499
179	0x3fc707ee	1.5549295
180	0x3fdc37df	1.720455
181	0x4044c02e	3.0742297
182	0x3fd8657a	1.6905968
183	0x3fb5db2e	1.4207513
184	0x4014b462	2.3235097
185	0xbf3fb54a	-0.74886
186	0x3ffeffb3	1.9921783
187	0x3f6dfe77	0.9296641
188	0x4050b994	3.2613268
189	0x40340c4a	2.81325
190	0x3fc396c1	1.5280381
191	0x404ca027	3.197275
192	0x400718ff	2.1109006
193	0x3fcc7b00	1.5975037
194	0x40034378	2.050993
195	0x40468d68	3.1023808
196	0x4021a9fa	2.5259995
197	0x404edce8	3.232233
198	0x3fdfb3e6	1.7476776
199	0x404e7974	3.226163
200	0x3d993d12	0.07482351
201	0x3f7cc7e8	0.9874253
202	0x3fc61567	1.5475281
203	0x3fce895d	1.613567
204	0x3fa96311	1.3233358
205	0xbe720348	-0.23634064
206	0x3fe27de4	1.7694669
207	0x3fd1d48a	1.6392987
208	0x3ff6b943	1.9275287
209	0x3fc36903	1.5266422
210	0x405114d3	3.266896
211	0x3fd18ae5	1.6370512
212	0x40429a40	3.0406647
213	0x4040d7ff	3.0131834
214	0x3f346c42	0.7047769
215	0x3ff4d0e8	1.9126253
216	0x3fd97252	1.6988013
217	0x3fd98115	1.6992518
218	0x405a5a27	3.4117525
219	0x3febe4fd	1.8429257
220	0x404d6818	3.2094784
221	0x3cbe5a78	0.023236498
222	0x3fd5e590	1.6710682
223	0x3f382d5c	0.7194421
224	0x4034822d	2.8204453
225	0x3fe3aa2d	1.7786309
226	0x3f0216dd	0.50816137
227	0x3fe4b0d8	1.7866468
228	0x40521fe6	3.283197
229	0x3fa39de2	1.2782557
230	0x3fba29bf	1.454399
231	0x4061f6f1	3.530697
232	0x3ff76739	1.9328376
233	0xbf2aaa0d	-0.66665727
234	0x401b4497	2.4260614
235	0x40495b9f	3.146217
236	0x40082922	2.1275105
237	0x3fd38434	1.652472
238	0x404c5853	3.192891
239	0x3f4ff1e4	0.8122847
240	0x40349bf1	2.822018
241	0x3fe60d96	1.7972896
242	0x3fe2d407	1.7720956
243	0xbd122c87	-0.035686996
244	0x3fcd637e	1.6045988
245	0x3feef3e7	1.8668183
246	0x3fab4ab0	1.3382168
247	0x3fcdc071	1.6074353
248	0x3fff2493	1.9933037
249	0x3fdf5e31	1.745062
250	0x3fc97ef9	1.5741874
251	0x405d99f4	3.4625216
252	0x3fadf7db	1.3591264
253	0x3dc00f56	0.09377925
254	0x3fc3c4a2	1.5294383
255	0x40013ee3	2.0194633
